project/model.pth (torch, 600515 bytes, 164 tensors)

gcn.input_proj.weight f4 [64, 21]
00000000: 4912 fabd 4378 3e3e d76a 48be 7d38 f73d
00000010: ad15 013e 2a4b 62be c0c5 76bb ba39 223c
00000020: a148 343e 4ec4 3fbe 2e3f 2d3e bdc1 1b3e
00000030: 8377 853d a6ef dd3c 1665 d43b 3b1e 4f3e
00000040: b87d 4ebe ee79 0f3e 239b 3ebe caec a43d
00000050: ab38 ec3d 1c0d 04bd eea6 58bd 6998 a8bc
00000060: a047 d0bd eede 333d cd38 643d ce23 98bd
00000070: 56a0 543d a585 f73d e51a 373e 9c38 8b3d
00000080: bf61 1c3e 073a 65be 8026 f23d 4a58 883d
00000090: 7997 39be 068f 1f3e c3d4 67bd fe61 2cbe
000000a0: c314 6f3d 14f0 c4bd aecf e93d 2519 a23b
000000b0: a6e1 be3c bdf5 453d 14ce ff3d b0f4 f33c
000000c0: 7194 dcbd 63c6 eb3d 5896 aa3d d466 c1bd
000000d0: 7991 233e 82b9 853b e9af 693e 6855 34be
000000e0: facc 74bd 92db ccbd 4e18 0abe b558 b8bd
000000f0: e9b8 243e 20d3 0b3e 21c8 57be 8364 1b3e
00000100: 4f4d 3e3e 8d48 da3d 8bda 353b b0c2 3bbe
00000110: b3f4 debc 2058 d3bd 74ac 17be a289 b2bd
00000120: 7f13 8dbd ada0 203c f8bc e6bd 3d51 0c3e
00000130: fa21 b6bd ced9 953b 37fd 073e 3eff f3bd
00000140: 4cb7 22be d40f 03be 3e21 503e 376e 0fbd
00000150: aefa 5c3e 2e25 20bd 39d1 77be 44b4 1b3d
00000160: 1f76 083e 04da bfbc e298 d4bd 618d b73d
00000170: cac2 5e3e 05ca a5bc dfd0 49be 4cd3 473d
00000180: 9710 2e3e 5db5 a9bd 4674 cb3d 14c3 063e
00000190: f88b a83d c1f7 c13c 63e7 07be 75f1 16be
000001a0: f82f d4bd e555 cdbb 0456 55bd fb30 c1bd
000001b0: 300f 44be 6ab3 153e dceb 6a3d 6b5d 27bd
000001c0: fa2e 2d3e 2f8f bf3d afee 1fbe 2280 91bd
000001d0: e3d9 013e 12a2 d83c 66e4 913d ab91 4f3e
000001e0: 004c 333e cd27 123e 58a2 393e 3e91 00be
000001f0: 028d a2bd bac9 4b3d 34c2 eebd e4f1 ff3d
00000200: ce6b 683e 9170 a8bd 0565 63be aa57 87bb
00000210: f00b bc3d 4a27 a53c b90c 6abd 1a88 bb3d
00000220: 8f0d cabc efa6 4abe 4c91 f7bd e5da 3e3e
00000230: 10f3 593d 34d4 093e 1130 b0bb ba55 153c
00000240: b3d1 95bd 8bc6 9bbc 6ee2 913d b070 bf3d
00000250: ce9b 3f3c 75bd 3dbe 8679 2dbd 4c12 07be
00000260: 4071 a7bd 2873 3b3e f6a2 933d 6bac f33d
00000270: 2e18 41be 28dc 31bd 015f 5abe e0c0 f73b
00000280: 2244 bc3d f017 503e 03fc 673c 28be 953b
00000290: 689d a43d 42ea 4cba 7631 2f3e df99 e33c
000002a0: 279c 563d 96e7 ee3d d773 bfbd cc48 90bd
000002b0: 9076 99bd 80d2 babd 8d8c f7bc 26a2 eb3d
000002c0: 1cde 4d3e ac6c bbbb b8bb 49be 56fa 06bd
000002d0: 6d0f 583d 28a1 06be 4b8f 31be 1a4f fe3d
000002e0: 8a21 b2bd 508f 003d 1bd0 14be 4b4d 56be
000002f0: a286 dd3d 287c 293d f96b c63c 2ec8 e8bd
00000300: 7a8d bdbd 1d99 e1bd a1d8 483e ec21 17be
00000310: a290 163e e6c2 633e e262 313e b08f 1dbe
00000320: 9b95 17be a5f2 eb3c 5ce7 eebd 2a75 0dbe
00000330: bf5e 0cbe 051d 42be a204 673e a1b3 e8bd
00000340: 8070 343e df7f c73d 6f24 10be e7cc 57bd
00000350: 6eae e7bd 1473 39be da34 39be 25b2 0d3e
00000360: b07b 9fbd 5684 233d 905c 323e 225a fb3c
00000370: 2c01 003e 844f 4abe d122 363e 3548 02bd
00000380: 5aec ae3c b5e1 4d3c c820 933d 2037 3f3e
00000390: a43d c2bc 7aa4 163d 0f98 d4bc d13e 75be
000003a0: 8da4 5b3e 28d0 773e 5af5 f43d 9294 19be
000003b0: b9c0 343d ddbf 44be 7647 64be 4c43 a93b
000003c0: 0bf1 293d dd98 06be 5e61 2dbe cf2c 08bd
000003d0: c970 adbd 66d3 3f3e 387b 1b3e 4181 113e
000003e0: 9660 f13d 9857 0abd 5b17 4abe 7414 bc3c
000003f0: 9b83 14be 1729 05be e1fa 563e cf69 02be
-0.12210519 0.18600564 -0.19572006 0.12071321 0.12605925 -0.22098985 -0.003765449 0.009901458
0.1760583 -0.18727228 0.16918632 0.15210624 0.06516936 0.027091812 0.006481777 0.20226376
-0.20165145 0.14011356 -0.18613867 0.080529764 0.11534246 -0.032239065 -0.05289357 -0.020580487
-0.101699114 0.043913774 0.055718232 -0.07428704 0.05191072 0.120860375 0.17881353 0.06797907
0.15271662 -0.22385417 0.118237495 0.06657465 -0.18124188 0.15581903 -0.05659939 -0.16834256
0.05836941 -0.09616104 0.11416565 0.004946845 0.023300957 0.048330057 0.12490478 0.029779762
-0.107705005 0.11512449 0.08329457 -0.09443441 0.15973462 0.004080952 0.2282101 -0.17610705
-0.059765793 -0.10002817 -0.13485834 -0.090012945 0.16086163 0.13654757 -0.21072437 0.15175061
0.18584178 0.10658369 0.002774867 -0.18335986 -0.027216291 -0.10319543 -0.1481188 -0.087176576
-0.06888484 0.009803933 -0.11266512 0.13702865 -0.08893199 0.0045730835 0.13280188 -0.11913918
-0.15890235 -0.12799007 0.20325181 -0.03501722 0.21580002 -0.039097957 -0.24200906 0.03801371
0.1332631 -0.023419388 -0.103807226 0.08962513 0.21753994 -0.020237932 -0.19708584 0.048785493
0.16998516 -0.082865454 0.09934287 0.13160354 0.08229822 0.023677709 -0.13271861 -0.14740546
-0.10360712 -0.006266343 -0.052083984 -0.094331704 -0.19146419 0.14619222 0.05735384 -0.040860575
0.16912451 0.09353482 -0.15618394 -0.071045175 0.12680773 0.026444469 0.07123642 0.20270412
0.1750946 0.14272995 0.18128335 -0.12555405 -0.07937051 0.04975293 -0.11658135 0.12497309
0.22697374 -0.08224595 -0.22206505 -0.0041303234 0.091819644 0.020160336 -0.05714104 0.09156819
-0.024664668 -0.19790243 -0.1208826 0.18638189 0.053210318 0.13459855 -0.0053768237 0.009114677
-0.073153876 -0.019015571 0.07123266 0.09347665 0.011694862 -0.18529303 -0.042352222 -0.13190573
-0.081758976 0.18305647 0.07208817 0.118981205 -0.1885688 -0.043422848 -0.21325304 0.0075608343
0.09192683 0.20321631 0.014159205 0.0045697875 0.08037835 -0.00078168896 0.17108712 0.027783332
0.052395012 0.11665265 -0.093482666 -0.07045135 -0.07493317 -0.09122181 -0.030218387 0.11505537
0.20104259 -0.005719742 -0.19700515 -0.032953583 0.052749086 -0.13147414 -0.17339818 0.12417431
-0.08697803 0.031386673 -0.14532511 -0.20927922 0.10816695 0.04137817 0.024221407 -0.11366306
-0.092555 -0.11015532 0.19613887 -0.14759034 0.1470361 0.22242317 0.17322877 -0.15386844
-0.14803164 0.028802225 -0.11665222 -0.13814226 -0.13708018 -0.18956383 0.22560361 -0.113623865
0.1762104 0.09741186 -0.14076398 -0.052685644 -0.11312567 -0.18110305 -0.18086568 0.13837488
-0.077872634 0.039921127 0.17418122 0.030682627 0.12500447 -0.19756895 0.17786719 -0.031807143
0.021352936 0.01256602 0.07183987 0.18673372 -0.023711033 0.03677795 -0.025951413 -0.23949744
0.2144949 0.24200499 0.119608596 -0.14998081 0.044129107 -0.19213815 -0.22292885 0.005165493
0.041489642 -0.1314425 -0.16931674 -0.033245858 -0.08468778 0.18732986 0.15183723 0.14209463
0.117860004 -0.033774942 -0.19735472 0.022958972 -0.14503329 -0.13003956 0.2099414 -0.12735675

gcn.input_proj.bias f4 [64]
00000000: e071 f3bd e49b 363e c6f8 46be 7f6e 1abe
00000010: df48 1bbe 52be 8b3d 104c 3fbe 4afb 53bd
00000020: a106 533e d722 34bd c13a 503e 1768 08be
00000030: 5d1e 34be d99b 0abe 76ed 513e 080f 2bbb
00000040: b494 29be 1d94 45bd 7214 3ebe 2477 6f3d
00000050: 73d7 0d3e 5398 38be 1862 47bd 8e8b d43c
00000060: a4e3 f13d 79e4 4ebe ccf7 6c3d 2c9a 0a3e
00000070: 77ab d03d 9bb8 0d3e f2de 1d3e 73b4 333e
00000080: 9866 1f3d fcc4 97bb 2c46 a83c 14ef 423d
00000090: 96d8 5dbd 4a23 06be 8833 283d b1d8 00bd
000000a0: df51 8f3b ba43 113e 449a f0bd b8ed 15bd
000000b0: 1278 fb3c 69cd 04be c677 96bd 56fb 15be
000000c0: 4f64 14be b1cb 8abd f85c 2a3e 2306 423c
000000d0: a61d 3f3d 121a 973c 05a0 633e 24cb 48be
000000e0: f218 f8bd 1ea4 08be e375 f33c 2ff5 673d
000000f0: 1112 90bd 0f42 82bc 66fd 893d 2505 2dbe
-0.11886954 0.17832905 -0.19430837 -0.15081213 -0.15164517 0.0682341 -0.1868136 -0.05175332
0.20607997 -0.04397854 0.20334913 -0.13320957 -0.17589708 -0.13536014 0.2050074 -0.0026101489
-0.16560632 -0.048236955 -0.18562487 0.05846323 0.13851719 -0.18026857 -0.048677534 0.025945451
0.11810997 -0.20204343 0.057853505 0.13535374 0.10188954 0.13839953 0.15417078 0.17549305
0.0389162 -0.0046316367 0.020541273 0.047591284 -0.05416163 -0.13099399 0.04106477 -0.031456653
0.0043737735 0.14185992 -0.11748174 -0.03660366 0.030696902 -0.12968983 -0.07347064 -0.14646658
-0.1449139 -0.06777132 0.16637027 0.011842283 0.046659134 0.018445048 0.22229011 -0.19608742
-0.12114133 -0.13343856 0.029719299 0.05663031 -0.07034696 -0.01590064 0.06737785 -0.16896494

gcn.convs.0.bias f4 [64]
00000000: 312c c1ba 03f7 e73a 226a 0d3b e5e3 353a
00000010: 7db1 d2b8 cea7 fdba c119 91ba f0f7 16bb
00000020: 634a f73a c094 2c39 4ed6 67b9 70e0 64b8
00000030: 331f a93a 699b c8b9 048d 0cbb 738c b0ba
00000040: 05b5 16b9 3f72 b93a 4207 b8b8 5e3c 2e3b
00000050: 2f38 693a 44a3 5b3a fde0 ee39 e941 613a
00000060: 456f a138 124c 19bb fb2e 08bb 559a 0bbb
00000070: db68 c639 477d c4ba bf2b ea39 a2bc 04b7
00000080: 4537 a6bb f424 e8ba e675 6ab9 6172 983a
00000090: 0534 c2b9 4b48 df39 9833 56ba d54c 813a
000000a0: 274d b4b9 c08a 233b be12 fab9 cdde 3dba
000000b0: 5ced 8f3a 72d7 1db8 e3b9 1d3a 1448 293a
000000c0: 5c07 003a c1d2 ee39 a299 6038 ce30 8aba
000000d0: f15e aeb9 0838 983a b6e2 cfb9 d92d 8639
000000e0: 96f4 6c3a ee3b 663a 42c8 593a ba96 eeb8
000000f0: 4bc1 7bb9 cc14 10bb d569 fe38 2c3e c6ba
-0.0014737902 0.0017697517 0.0021578153 0.0006938561 -0.0001004664 -0.0019352378 -0.0011070297 -0.0023035966
0.0018866773 0.00016458612 -0.00022109711 -5.456846e-05 0.0012902975 -0.00038262762 -0.0021446357 -0.0013469592
-0.0001437255 0.0014148428 -8.7751556e-05 0.0026586275 0.00088966166 0.00083785155 0.00045562527 0.000859289
7.697804e-05 -0.0023391289 -0.0020779956 -0.0021301706 0.00037843626 -0.0014990949 0.0004466455 -7.911733e-06
-0.0050725066 -0.0017711208 -0.000223599 0.0011630767 -0.0003704132 0.00042587737 -0.000817114 0.0009864817
-0.00034389758 0.0024954528 -0.0004769768 -0.0007242978 0.0010980773 -3.7632366e-05 0.0006016774 0.0006457579
0.0004883909 0.0004555192 5.3548843e-05 -0.0010543109 -0.00033258603 0.0011613378 -0.0003965103 0.0002559263
0.00090391317 0.0008782734 0.0008307734 -0.000113767994 -0.00024009233 -0.0021985052 0.000121313766 -0.001512473

gcn.convs.0.lin.weight f4 [64, 64]
00000000: d1b4 11bd 82d8 513e 0954 133e dbcb a7bd
00000010: 7f3f fdbd dfd8 293e 1424 fcbd ce7d 58ba
00000020: ea39 dd3c 5d30 2c3e b8af b93d 88fe 89bd
00000030: d4f4 433e 847d 8cbd 69aa 82bd 7590 5dbc
00000040: ff07 e3bd cf99 c8bd 12f4 0bbe 07fc 8ebd
00000050: 39d3 2b3e 4db3 4dbd b8ad c9bd fdcd 8f3d
00000060: f5f2 e2bd a75f 48bc 14bb a8bc f93c e9bd
00000070: 02f0 06be e66d 20bd d0a0 86bc 8830 953c
00000080: 2673 763d 8fa9 183e 90db 013e 4d7e 503e
00000090: e08e 2ebe c613 36bd 141d 3cbe 1b1b 44be
000000a0: 22bd 75bd 1276 093d 80a5 46be 6e60 88bc
000000b0: c029 96bb b17c 20be 91c8 eabc b90a 54bd
000000c0: c303 053e 94ba 273d 8c4f 42be 39ec a23d
000000d0: 4939 efbc a9f4 173e 93c7 92bc 4504 11be
000000e0: fc54 cc3c 593e 62bd d984 7dbd ef05 d63d
000000f0: f8b0 2cbe 0d58 993d e023 3e3e 066a 9d3c
00000100: 37da 97bd a360 fd3d f016 7ebd eef1 51be
00000110: 391a 4c3d cd66 37bd 7afb ad3d 5242 9d3d
00000120: 492b 58be 8708 cebd 0d54 d7bd f54f 343e
00000130: 9d75 033e eb83 8dbc 0ff1 443e 514b d83d
00000140: a3aa 653e f3bc 01bc 2a30 d1bd d8ae 28bb
00000150: a55a 0a3e 4b45 6b3d 3445 ebbd fcd1 ee3d
00000160: f942 55bb 220e 21bc 8f3f 50be ca0c 80bd
00000170: 0dbd 023e ee48 26be 1020 2f3d 8028 fe3d
00000180: 0465 223d b35a 21be 52ef 483c ffc3 5d3d
00000190: 0f89 e53d 1bc7 02bd 3c76 923d 9e3f 14bd
000001a0: da73 383e e978 073e 379f 11bc 4c4b 9fbd
000001b0: 48b4 3f3e cc3d 233e 96a4 58be e3b8 7f3d
000001c0: 9142 a1bd 2ff1 e8bd e1a6 f8bd 3039 2c3e
000001d0: 2699 c13d 937d 6abd 61fb 733d 73f9 1dbe
000001e0: b304 f53d 94da 473d 7cd0 0bbd dcff e1bd
000001f0: e34e 2a3e dfa1 86bc 4c7c 3a3e daed c73d
00000200: bfce 513c 6674 273e f514 633e 84d0 b3bd
00000210: a3a7 bfbd 33b2 14be 52c8 8d3d 2aa3 f1bc
00000220: c9b3 123e 5953 56be 3524 3cbe 800e ef3d
00000230: 1d4f 2e3e c952 bd3d 439e 2c3c 265e f7bd
00000240: 87c4 eabd 4471 d53c d1d8 003e 5c59 463e
00000250: 7faa b93d 23bb e7bd 0cfe 293c d997 173e
00000260: 9efd 93bc 5bf6 01be 5be5 fa3d fdc1 05be
00000270: 9a22 203d 4f64 893d 211c d2bd 8a57 333e
00000280: 2188 c5bd 0770 99bd 10de 483e c4f2 b8bd
00000290: 53e0 df3a b092 33be d626 0ebc 407f 303e
000002a0: 220a 0a3e d988 45be 2648 773d c076 abbd
000002b0: 6b24 27be fe8d 253e 4a31 40be 5397 843d
000002c0: 4420 91bd 4880 81bd 79a2 133d 489e 733d
000002d0: 9a39 833d cb7d a13d 09d2 c0bd 59a5 2e3d
000002e0: 4124 ebbd df82 1a3e ff01 a1bc c7e4 b53d
000002f0: 9d86 24be fb36 15be b75c 473e a133 553d
00000300: fab2 4bbe 41fc afbd 839e 823d a2d9 2fbd
00000310: fe00 6dbb 02d9 403d 79e7 99bd 71f5 c53d
00000320: a991 33be 2f14 103e dc31 99bd a88d 8f3d
00000330: c930 28bd dcb7 5fbe 0472 9e3d b45d 1fbe
00000340: 5bb4 9ebd d481 d3bd 6138 10bd 07f7 23be
00000350: b425 103e 0e97 683b ba10 0fbe 4593 773d
00000360: fdd5 29be 6c0a b6bd f8aa 413e 13c7 43be
00000370: 5f06 37be 72fd 4cbe 3412 35be e7be 5fbe
00000380: d8bd 3ebe 846c 33be bab1 c83d 24e7 d13d
00000390: c4a1 9abd 3e5c f4bd b495 1b3e 39c6 11be
000003a0: 5f2a e43c 0735 3b3d dcc3 393d 94c5 a9bd
000003b0: 1ad3 c2bd c570 e5bd 0af8 2d3e c133 d4bd
000003c0: b0a4 943d ef6d 223e 9e63 76bd e578 3ebe
000003d0: 3160 57be 7afc c0bd d0a1 5ebd 093a d2bd
000003e0: 97ad 42be 16db 8dbd e834 c73d 6f75 543e
000003f0: c3b3 c0bd 9f54 b5bd b57c 783e 2a10 8abd
-0.03557283 0.20492747 0.14387526 -0.08193179 -0.123656265 0.16586636 -0.12311569 -0.00082584925
0.027005155 0.16815324 0.09066719 -0.06738001 0.19136363 -0.06859878 -0.063801594 -0.013523211
-0.110855095 -0.09794962 -0.13667324 -0.06981664 0.16779794 -0.050219823 -0.09847587 0.07021711
-0.110814966 -0.012229837 -0.020597018 -0.11388583 -0.13177493 -0.039167307 -0.016434103 0.018211618
0.060168408 0.14908431 0.12681413 0.2036068 -0.1704669 -0.04445245 -0.18370467 -0.19150965
-0.059994824 0.033559866 -0.1939907 -0.016647544 -0.0045826137 -0.15672566 -0.02866009 -0.05176804
0.12989716 0.04094942 -0.18975657 0.07955212 -0.02920212 0.14839424 -0.01791743 -0.14161785
0.024942867 -0.05523524 -0.06189427 0.104503505 -0.16864383 0.074874975 0.18568373 0.019215595
-0.07414668 0.123719476 -0.062033594 -0.20502445 0.049829695 -0.044775773 0.08495231 0.07678665
-0.21110262 -0.1006022 -0.10514078 0.17608626 0.12837835 -0.017274817 0.19232582 0.105612405
0.22428374 -0.007918584 -0.10214265 -0.002573898 0.1351114 0.05743913 -0.11487809 0.11661145
-0.003254114 -0.00983003 -0.20336746 -0.06252439 0.1276743 -0.16238758 0.042755187 0.124100685
0.039647117 -0.15757255 0.01226409 0.054141995 0.112077825 -0.031928163 0.07151458 -0.036193483
0.18012944 0.13229717 -0.008888057 -0.077780336 0.18721116 0.15941542 -0.21156535 0.06243218
-0.07874025 -0.11374127 -0.121412046 0.1681869 0.09453039 -0.057248663 0.059565905 -0.15427189
0.11963787 0.048792437 -0.034134373 -0.110351294 0.16631655 -0.016434608 0.18211478 0.097621635
0.01280564 0.16352996 0.22175963 -0.087800056 -0.09358146 -0.14521103 0.06922974 -0.029496748
0.14326395 -0.20930232 -0.18373187 0.116726875 0.17022367 0.09244306 0.010535779 -0.12078504
-0.11463266 0.026054986 0.12582709 0.19370025 0.09065723 -0.1131499 0.010375511 0.14804019
-0.01806527 -0.12691633 0.12250777 -0.13062282 0.0390955 0.067085855 -0.102592714 0.17513862
-0.09645105 -0.07492071 0.1961596 -0.09030679 0.0017080404 -0.17536426 -0.008676251 0.17236042
0.13480428 -0.19290484 0.06037154 -0.08372259 -0.16322486 0.16167447 -0.18768802 0.06474175
-0.07086232 -0.06323296 0.036043618 0.05947712 0.06407471 0.07885321 -0.09415061 0.042638157
-0.11481524 0.15088986 -0.019654272 0.088815264 -0.16066976 -0.14571755 0.19468962 0.05205119
-0.19892493 -0.085930355 0.0637789 -0.04293216 -0.0036163921 0.047081955 -0.07514853 0.09665955
-0.17536034 0.140702 -0.07480213 0.07009441 -0.04106215 -0.2184748 0.077365905 -0.15563089
-0.07749244 -0.10327497 -0.035210017 -0.16012202 0.14076883 0.0035490426 -0.13971224 0.06044318
-0.16585536 -0.088887066 0.18912876 -0.1911891 -0.17873524 -0.20018557 -0.17682725 -0.21850167
-0.18627107 -0.17521864 0.09799524 0.10249165 -0.075503856 -0.11931656 0.15193826 -0.14235772
0.027852235 0.045704868 0.0453528 -0.08289638 -0.09512921 -0.1120315 0.1698915 -0.10361434
0.07257974 0.15862249 -0.060153596 -0.18600805 -0.21032788 -0.09423156 -0.054353535 -0.102649756
-0.19011532 -0.06926553 0.09726888 0.20747922 -0.09409287 -0.08854031 0.24266322 -0.06741364

gcn.convs.1.bias f4 [64]
00000000: 58d9 8338 6bf7 9f3a 0550 263a 672c 00bb
00000010: 584b 37ba 7877 353a 253d f339 0943 ba39
00000020: aa11 92b9 4971 9a39 0a8c 383a 6158 9538
00000030: 479e 6d3a 6b7a e039 5cb9 743a 8602 bd37
00000040: ab66 21ba 29e0 3ab9 104e a7b9 5e4c abb9
00000050: dd08 083a 7ba7 62ba 24e1 30ba 647a 9c38
00000060: 89b2 7a39 e928 6d37 03c1 caba 199e 8239
00000070: 3507 df38 19a6 f4b9 1d18 80b9 6bee 7639
00000080: 0d07 34ba 76bc 783a eb1a c239 612c e8b9
00000090: 0785 84b7 95fd 04b9 2474 4539 b76c b13a
000000a0: 9aab a4b8 40b9 b839 e87f 593a a4a7 e139
000000b0: 2889 a7ba 6de1 beb8 0800 6738 372e 35ba
000000c0: 1656 0b3a 611a a2b9 ff01 4c39 0663 3639
000000d0: e2cb c8b8 21ab c439 351d b338 e4ad 303b
000000e0: 02e2 f5ba 51ff b2b8 4862 5bba 50a9 4c3b
000000f0: 094b eeb8 af48 5aba 031a 353a edcc 743a
6.28705e-05 0.0012204474 0.00063443213 -0.0019557716 -0.0006992123 0.0006922404 0.00046394128 0.0003552663
-0.0002786045 0.00029457573 0.00070399104 7.1213355e-05 0.00090644177 0.00042815818 0.0009335482 2.253173e-05
-0.00061569613 -0.00017821848 -0.00031910883 -0.0003267256 0.0005189309 -0.00086461724 -0.0006747416 7.461457e-05
0.00023908367 1.4135826e-05 -0.0015468899 0.00024913324 0.00010634811 -0.0004666306 -0.00024432028 0.00023549206
-0.0006867506 0.0009488532 0.0003702262 -0.00044283553 -1.5797572e-05 -0.00012682968 0.0001883065 0.0013536428
-7.852093e-05 0.00035233237 0.00082969526 0.00043040246 -0.0012781965 -9.101895e-05 5.507472e-05 -0.00069114886
0.0005315257 -0.00030918702 0.000194557 0.00017393762 -9.574719e-05 0.00037511534 8.5408254e-05 0.0026959116
-0.0018759372 -8.535258e-05 -0.0008368832 0.0031228848 -0.00011362701 -0.0008326871 0.0006908478 0.00093383976

gcn.convs.1.lin.weight f4 [64, 64]
00000000: 47f2 033e 8bdd 1ebd c581 923d b517 b6bc
00000010: 3ffb 37be 9f97 893d 2265 5d3e 8463 27be
00000020: 89ff 99bd 6c43 d5bd e8fd 83bd 4229 f63d
00000030: 80ed 8cbd 02c3 423e d835 02be 4fd8 6dbd
00000040: 32ff 8bbd 6381 27be bd7b f7bd f60a bcbd
00000050: d602 ca3d 13a0 a63c 0aa8 513e b412 0ebe
00000060: 3071 323c 223b 14bd 529b 1e3e 497e 1b3c
00000070: f9bf 2a3e f68e 263e 9c21 333e c0d3 893c
00000080: 3565 79be b739 09be ce29 063e 64e6 343d
00000090: b921 fb3d 89dd 12be 0b07 973d b0b9 20be
000000a0: 55d1 89bd e568 913d 387e a8bd acf3 3f3e
000000b0: c53b 44bb ad52 1abe 0684 773e 3692 bcb9
000000c0: acad 823c 008e 933d a0a9 b9bd 0c1a 56bd
000000d0: 950d 773e bac1 463e daf2 193e d0c9 9c3c
000000e0: ddbb dcbd 3aac 2e3e 9a07 65bd fe43 b23d
000000f0: eb5e ab3d ec53 b43c fed5 eb3c b4ca 153e
00000100: 5598 ccbd e6cd 093e cede 9b3a 08fb a53d
00000110: 7b15 58be 2ccf 31be 7a3e 043e 0f78 28be
00000120: 0190 a1bd ff30 5fbe 8e7a 103b 9e2a 1d3e
00000130: 4963 f73c 6d60 12be f1ec 023d ed86 23be
00000140: 5ec2 e03d 38ca e13d 9ffe 323e 48d5 edbc
00000150: 6165 24be 907f e53c bb2c 12be 8bb6 6ebc
00000160: cb5f 3abe b98d 13bd c1dd 103e 891c 33be
00000170: 01b0 15be 31b1 08bd f31b 3bbd 2d7e 36be
00000180: d595 c13c 8196 103c 2ebf 2dbe 37a5 453e
00000190: 4062 bfbd a305 93bd a8bf 5cbe 0968 c13d
000001a0: b89f d0bc 09f0 4a3e e0f1 41bc 8b89 41bd
000001b0: 2776 543e b2e4 f9bd 3211 67bd 7e02 9a3d
000001c0: a79b 5abd fb1c 293e bc01 c83d 4a53 4fbe
000001d0: 91bb 463e 0496 0abe 0150 903d b3a5 723d
000001e0: 5f89 f5bd cc35 6f3d 9950 7abd 1f3d e7bd
000001f0: ba47 353e bc4a c1bd 1fc1 023d 0954 e63d
00000200: 944a 0abe 6ad4 ed3d 37a8 edbd 3bbc 153e
00000210: a235 373e 3220 6f3e 340e 0fbe 849e 1dbe
00000220: 611d 903d f4e3 543d 3b8e 46be c9a1 15be
00000230: 9572 21be 4141 423e 6c8f 453e 28e6 a73c
00000240: 80a9 513e 657a 513e 1d5f 0a3e 1bcf 4dbe
00000250: 7315 f3bd d263 463e 0481 43be fa79 1b3e
00000260: 0ffd 4d3e 1cfa 03be 1566 73bc a89e 573e
00000270: d3ca 69be c901 19be db3c 28bd b181 2dbd
00000280: cbba ed3c 550c 1ebd 2b01 4e3e e5ed 50bd
00000290: 13d4 993d e52f 163e f6a0 08be 36e5 1b3b
000002a0: 9559 ad3d 9a7d 293e e64b e1bd e9f7 d93d
000002b0: 96a1 503e 517b 37be 14a8 c5bd aaac f4bd
000002c0: fe72 16be c42e f13c 3c89 60be ba8a 513e
000002d0: 3674 bfbd 5ba1 c9bd d62a bb3b b90c dcbd
000002e0: c299 203d b2d2 0bbe f67a 403e 5040 93bd
000002f0: 1ff5 2d3e fa50 12be 21f6 6ebd 8daa 58be
00000300: 482c 093e 44c7 a93c 4899 c5bc d1bf 3fbc
00000310: 0d59 fcbd 55de 503e fd73 563e c530 623e
00000320: 6c73 033b 6794 afbd d2f6 4cbe b0c3 09bd
00000330: 71f7 293e 95f7 b3bc a91f 2b3e 4221 adbd
00000340: a41e 78bd bc6e 38bd d249 ffbd 6527 4dbe
00000350: 366c 4bbe 8b28 3a3c 06c6 edbd 8983 4bbe
00000360: 24f2 763d 0153 5abd 48e5 2bbe 09e0 4dbe
00000370: ae87 51bd 8167 623d e5bc 46be 46df 55bd
00000380: f9f4 99bd d01d 313e ed77 3ebe a547 383e
00000390: b235 203e 8f7a 1f3e cf7c ec3d 7302 e3bd
000003a0: 4bbc 36be a8f8 15bc 7420 5dbc 311a 37be
000003b0: 0b1a f23d 4099 3abe 7523 47ba 2932 22be
000003c0: c94d 003e a31a 36be a351 153d 9916 38bd
000003d0: af4b 1e3e 6151 403e 544b 0e3e cb50 13be
000003e0: 50a3 e63d 086b e13d ce3b 003e f459 8aba
000003f0: f47c b8bd 16ac 30bd 89c1 b1bc 6cdc fd3d
0.1288539 -0.0387855 0.07153658 -0.022228101 -0.17966937 0.067183726 0.2162061 -0.16346556
-0.075194426 -0.1041325 -0.06444913 0.12019588 -0.06881237 0.19019702 -0.12715852 -0.058067616
-0.06835784 -0.16357951 -0.12084148 -0.09181778 0.09863822 0.020340001 0.20474258 -0.13874322
0.010891244 -0.036189206 0.15488937 0.009490558 0.16674794 0.16265473 0.1749329 0.016824603
-0.24355014 -0.13400923 0.13101885 0.04416503 0.122622915 -0.14342321 0.0737439 -0.15695834
-0.0672938 0.07100085 -0.08227199 0.18745297 -0.0029942852 -0.15070601 0.24171457 -0.0003596709
0.015951954 0.07204819 -0.090655565 -0.052270934 0.24126275 0.19409838 0.15034047 0.0191392
-0.107780196 0.17057887 -0.055915453 0.08704375 0.083677135 0.022012673 0.028788563 0.14628106
-0.099899925 0.1345745 0.0011891962 0.08104521 -0.21101944 -0.17364186 0.12914458 -0.16452049
-0.07888795 -0.21796034 0.0022045705 0.15348288 0.03019871 -0.14294596 0.031964246 -0.15969439
0.109745726 0.11024898 0.17479943 -0.029032364 -0.16054298 0.028014928 -0.14274876 -0.014569889
-0.18200605 -0.03602383 0.14147092 -0.17491354 -0.14617921 -0.033372108 -0.04568095 -0.1782157
0.023631016 0.008824945 -0.1696746 0.19301306 -0.093449116 -0.071788095 -0.21557486 0.09443671
-0.025466785 0.19818129 -0.011837453 -0.04725031 0.20748197 -0.12201823 -0.056412883 0.075200066
-0.053371098 0.16514961 0.09765956 -0.20246616 0.19407488 -0.13533789 0.070465095 0.059240054
-0.11989092 0.058400914 -0.06111202 -0.11290955 0.17703143 -0.094380826 0.031922456 0.11246497
-0.13505012 0.116127804 -0.1160435 0.14622585 0.17891553 0.23352125 -0.13970262 -0.153925
0.070368536 0.051975206 -0.19390194 -0.14612497 -0.15766366 0.18970205 0.19292992 0.02049549
0.20474815 0.20456846 0.13512845 -0.20098536 -0.118693255 0.19374016 -0.19092184 0.15183249
0.20116065 -0.12888378 -0.014855881 0.21056616 -0.22831278 -0.14942087 -0.04107366 -0.04236001
0.029019734 -0.03858598 0.20117633 -0.051008124 0.07511153 0.14666708 -0.13342652 0.0023787743
0.08464352 0.1655182 -0.110008046 0.10642988 0.2037414 -0.17918135 -0.09651199 -0.119469956
-0.14692304 0.029441245 -0.21927351 0.20463076 -0.09348337 -0.09845229 0.0057118936 -0.10744614
0.039209135 -0.13654593 0.18796906 -0.07190001 0.16988038 -0.14288703 -0.058340196 -0.2115881
0.13395798 0.0207249 -0.024120942 -0.011703447 -0.123216726 0.20397313 0.20942684 0.22088917
0.002005781 -0.085732274 -0.2001603 -0.033633888 0.16598298 -0.021968642 0.16711296 -0.08453609
-0.060576096 -0.04502748 -0.12465252 -0.20034559 -0.19865498 0.011362205 -0.116100356 -0.19874395
0.060289517 -0.053301815 -0.16786683 -0.20104994 -0.051154785 0.05527449 -0.19407995 -0.052214883
-0.07517428 0.17296529 -0.18600436 0.1799608 0.15645483 0.15574096 0.11547243 -0.110844515
-0.17845266 -0.009153523 -0.013496507 -0.17881085 0.118213736 -0.18222523 -0.0007596531 -0.15839447
0.12529673 -0.17783599 0.036454808 -0.044943426 0.15458558 0.18781044 0.13895923 -0.14386289
0.11261618 0.11006743 0.12522814 -0.0010555373 -0.09008208 -0.043132864 -0.02169873 0.12395558

gcn.batch_norms.0.module.weight f4 [64]
00000000: 5f12 803f b751 783f 7d43 803f 30a1 7a3f
00000010: 2c9a 7b3f 2fc8 823f 6f18 833f 939e 7c3f
00000020: 10d3 813f cec2 7f3f 476c 833f 6ff9 793f
00000030: 9423 7a3f 046d 823f d31d 793f 62b4 843f
00000040: 4636 793f 9e21 813f 0c11 7c3f b2c4 7d3f
00000050: c2c7 833f 0325 7f3f 5944 793f cf21 813f
00000060: b463 813f 1764 823f 84e8 763f 0896 7e3f
00000070: fa22 803f 21de 823f 226b 7e3f 1a70 7e3f
00000080: 1c39 7e3f ed3b 773f 01eb 813f 9732 823f
00000090: 69fa 833f 3e31 833f 257a 823f 51ea 823f
000000a0: 53d6 7a3f 6b51 7b3f fd8c 813f 6ad6 803f
000000b0: 2c00 823f 191b 7d3f a14b 7b3f 160a 833f
000000c0: cd2f 7d3f 2d8c 813f 5cb4 7b3f 8b6a 833f
000000d0: 83b9 823f 83fd 833f 3307 803f c537 783f
000000e0: 2c8a 783f f260 783f a048 833f 47d5 783f
000000f0: 8a01 823f 4b8f 7f3f 22ca 7c3f 6f4b 803f
1.0005606 0.96999687 1.0020596 0.979022 0.9828212 1.0217341 1.0241832 0.98679465
1.0142536 0.99906623 1.0267419 0.9764623 0.9771054 1.0189519 0.97311133 1.0367548
0.9734844 1.0088384 0.9846351 0.9912826 1.0295336 0.9966585 0.97369915 1.0088443
1.0108552 1.0186795 0.9644854 0.9944768 1.0010674 1.0224038 0.9938222 0.99389803
0.9930589 0.96575814 1.0149843 1.0171689 1.0310794 1.0249403 1.0193526 1.0227758
0.9798328 0.9817111 1.0121151 1.0065434 1.0156302 0.9886947 0.98162276 1.0237453
0.98901063 1.0120903 0.9832208 1.0266889 1.0212864 1.0311741 1.0002197 0.969601
0.97085834 0.97022927 1.0256538 0.97200435 1.015672 0.9982802 0.9874593 1.002302

gcn.batch_norms.0.module.bias f4 [64]
00000000: f104 f23c 9d2f ed3b da55 7b3c 7c60 9e3c
00000010: 8b68 f13c 74a5 3b3d d42a 333d 0f8e 893c
00000020: 8136 a53c d88e d33c 5c18 363d 869c f2ba
00000030: 6391 2f3c e2cd 533c 443b 273c f361 1a3d
00000040: 5123 223d 93f4 973c 2d52 cd3c 7124 133d
00000050: f597 2b3d 5eb8 cc3c d294 1bbb 0372 153d
00000060: e4be 613c 5201 303d ef71 a6bc 7d09 fb3c
00000070: 40d8 af3c b746 cc3c 37f2 4a3c dcab 9b3c
00000080: edfe 30bc efb6 383c bad8 123d 8f37 293d
00000090: 8a06 0c3d 2062 4c3d 1cbf 3d3d c6fa 083d
000000a0: 9937 4ebb ecc5 a43a 7a21 b93c 78da e63c
000000b0: 8456 dd3c b282 083c d6af 9e3a fbb2 4a3d
000000c0: eabd 563c f22d c43c 32a6 d73c 4ae8 3e3d
000000d0: 7d43 393d f4dc 533d 381f b93c 83c2 f03b
000000e0: b9de 8a3c a7dc b1bb 2397 343d a7e8 ae3c
000000f0: 34c4 363d edc1 b73c ba83 be3c f4d3 0e3d
0.029543372 0.007238342 0.015340293 0.019333117 0.029468795 0.045812085 0.043742016 0.016791372
0.020167591 0.02582495 0.044456825 -0.0018509782 0.010715815 0.012927504 0.010207001 0.037691068
0.03958446 0.01854924 0.025063599 0.035923425 0.041892964 0.024990257 -0.0023739827 0.036485683
0.013778422 0.04297001 -0.020318 0.030644173 0.02146542 0.024936063 0.01238685 0.019002847
-0.010802967 0.0112740835 0.035851218 0.04131275 0.034185924 0.049898267 0.046324834 0.03344228
-0.0031466244 0.0012571192 0.02259897 0.028180346 0.027018793 0.008331941 0.0012106847 0.049487095
0.0131068025 0.02394769 0.026324365 0.046608247 0.045230377 0.05172439 0.022597894 0.0073474064
0.016951906 -0.005427915 0.044089448 0.021351172 0.044620708 0.022431338 0.023256171 0.034870103

gcn.batch_norms.0.module.running_mean f4 [64]
00000000: 12f6 5d3e b8b0 b83d e994 413d 4b75 0e3e
00000010: faf5 35be 842b 8cbe 4783 41be 0d54 8b3e
00000020: 3525 85be b6aa a9be 49d2 dfbe 6da5 e6bd
00000030: 70fc 0a3f 1252 1ebe b365 143c a20f 4dbe
00000040: e768 48bc 20ea 5c3e e997 303f 820c 66bd
00000050: 5f62 92be 6d8a 66be d01d 073d c6c7 88be
00000060: be88 c3bd 33cb 1cbe c3d1 3bbe 2152 7d3e
00000070: e69f 8fb9 d808 6d3e 24fd db3d 9642 913e
00000080: 4b8a e7be 1ebe 9e3e 3a5d 67be 89ba a8be
00000090: b02b 9dbe 78b3 9bbe 655d 42bd 8016 23bd
000000a0: 2360 8f3e 8030 bbbd 350c 803e 3e15 9bbe
000000b0: e503 e0bd a12a b33d 35b8 e23e fbce 1c3d
000000c0: 5e75 cd3d 4453 c0be 5249 f9be 9d07 5cbd
000000d0: 8fd3 1a3e 6a04 ddbb d05e ed3c 1303 903c
000000e0: 38bd 3b3d c766 f1bd e944 d8bd 13ea 06be
000000f0: da22 69be 968e 513d 4a8a bbbd 1c0a d5bb
0.216759 0.090180814 0.047261152 0.13911931 -0.17769614 -0.2737695 -0.18897735 0.27212563
-0.2600495 -0.33138055 -0.43715122 -0.11262021 0.5429144 -0.15460995 0.00905745 -0.20025495
-0.012232042 0.21573687 0.68981797 -0.056164272 -0.28590676 -0.22513743 0.032987416 -0.26714915
-0.09547566 -0.1531189 -0.18341736 0.24738361 -0.0002739422 0.23147905 0.10741642 0.28371114
-0.45222697 0.31004423 -0.22594157 -0.32954815 -0.30697393 -0.3041036 -0.04745235 -0.03981638
0.28003034 -0.0914011 0.25009313 -0.30289644 -0.10938243 0.08748365 0.44281164 0.03828333
0.10032152 -0.37563527 -0.4868875 -0.053718198 0.15119766 -0.006744911 0.028975874 0.01757959
0.04583475 -0.11787181 -0.105600186 -0.1317523 -0.22767201 0.05116137 -0.09157236 -0.0065014493

gcn.batch_norms.0.module.running_var f4 [64]
00000000: 1dee ae3d 62f0 673d 857c 083d 444e 643d
00000010: a51d 473e 2b2b 203e e81c ac3d 9152 603d
00000020: f540 203d 7c77 733e 0265 9e3d c8eb 033e
00000030: 8cc6 ef3d ddc3 ae3d 3a76 8c3d 48fd e23d
00000040: 195f 2b3e 5328 243e 8d1d 7e3e 94b6 493e
00000050: 8c33 1d3e 6a1e e33d 083d be3d af38 543e
00000060: 8b83 bc3d a59d 393d 2129 4e3d 2c0a 4b3d
00000070: b4b1 5d3e 581e e93d 8bb9 3e3e fc02 383e
00000080: d704 a13d 6848 063e 5ec2 e83d e9b3 ff3d
00000090: a7d3 893d 9f1b ce3d 8990 283d 6be6 a03d
000000a0: a455 e23d 2374 4f3d 46b6 253e 0924 993d
000000b0: ef08 5e3e 9e64 5c3e f6e2 173e a02b 093e
000000c0: 8706 8c3e 813b c53d cd79 1a3e b021 613d
000000d0: 83d5 1b3e d247 db3d 6543 453d 481a c13d
000000e0: 0f55 113e 6c52 6c3d 8459 3d3d 91c3 543d
000000f0: 7316 023e b902 a33d f7f0 e73d 38b3 ac3d
0.0854151 0.05662573 0.033321876 0.055738702 0.19444902 0.15641467 0.08403951 0.05476624
0.039124448 0.23776048 0.077341095 0.12882912 0.11707792 0.08533452 0.068584874 0.11083466
0.16735496 0.16031007 0.2481596 0.19698554 0.15351695 0.110897854 0.092889845 0.20724748
0.09204777 0.045316357 0.050332192 0.049570248 0.2164982 0.11382741 0.18625467 0.17969888
0.07862251 0.13113558 0.113651976 0.12485487 0.067298226 0.10063862 0.041153464 0.07856449
0.11051491 0.050647866 0.16182813 0.07477576 0.21683095 0.21522757 0.14832672 0.13395548
0.2734873 0.0963049 0.15085526 0.054963768 0.15218167 0.10707058 0.048159976 0.09428841
0.14192604 0.05769579 0.046227947 0.05194432 0.12703876 0.07959504 0.11325257 0.08432621

gcn.batch_norms.1.module.weight f4 [64]
00000000: 2858 803f 2a96 843f 2f1c 823f dce4 843f
00000010: 0231 833f a631 803f 0482 823f f492 793f
00000020: efca 823f c62a 803f b553 823f 20a9 853f
00000030: c002 823f 4804 7b3f 0d9e 7e3f 649e 743f
00000040: 3e04 7f3f 0ef7 7e3f bc18 7a3f 16b8 7b3f
00000050: 60b8 793f 2f1b 803f 0cc1 803f fcd7 7c3f
00000060: 4d52 843f 8d31 793f 1596 813f 7fe1 813f
00000070: 8cb3 833f 59f9 793f 9390 833f 7d79 7a3f
00000080: 9317 863f c8e1 833f ac37 7b3f 7395 783f
00000090: ff95 7d3f fbf2 7a3f 5df7 7f3f cda2 833f
000000a0: a768 813f 299f 783f 39a6 793f 00b6 7f3f
000000b0: 2f4f 823f 8d0e 823f ee39 783f 51e6 813f
000000c0: 72e2 7e3f 9445 813f c978 843f 37b3 7d3f
000000d0: 5f00 7a3f 4bcd 793f 2be8 793f 22c0 833f
000000e0: 2a4d 853f cc1b 773f c6fd 833f 7096 823f
000000f0: 9722 813f 30ad 7a3f 9b42 813f a741 783f
1.0026903 1.0358326 1.0164851 1.0382342 1.0249331 1.0015152 1.0195928 0.9748986
1.021818 1.0013053 1.0181795 1.0442238 1.0157089 0.9805341 0.99459916 0.95554185
0.9961585 0.99595726 0.9769399 0.9832777 0.9754696 1.0008296 1.0058913 0.98767066
1.0337616 0.97341233 1.0123926 1.0146941 1.0289168 0.976461 1.0278496 0.97841626
1.0475944 1.0303278 0.98131824 0.9710304 0.99057 0.9802701 0.9998682 1.0284058
1.0110062 0.9711786 0.9751926 0.99887085 1.0180415 1.016069 0.96963394 1.0148412
0.9956428 1.0099359 1.0349361 0.99101585 0.97656816 0.9757888 0.97619885 1.0293009
1.0414174 0.9652679 1.031182 1.020216 1.0088681 0.97920513 1.0098451 0.9697518

gcn.batch_norms.1.module.bias f4 [64]
00000000: da45 56bd c63d 11bd cc91 1fbd 16c9 51bd
00000010: 4a6f 4bbd 2027 dabb 9e09 efbc 18bc 99bc
00000020: a22e 7ebd 9da9 12bd 42fc 75bd 51d3 49bd
00000030: f8de 4fbd ad07 02bd 382e 24bd 6ca8 f3ba
00000040: c747 a2bc 72da 1bbd a85e ebbc 3b5e 22bc
00000050: 7f62 09bd 01ab 81bd d3cb 53bd 2ef7 cfbc
00000060: 169d 1abd 334f ffbc 977e 87bd b8bd 6ebd
00000070: 9b62 69bd c9f7 f7bc ff41 c1bc 9c4d e6ba
00000080: 2fbf 48bd bc4c 11bd e350 42bd 4f9c 03bd
00000090: 8da3 bcbc 7646 e6bc 9f2c 47bd 7afd 54bd
000000a0: ec20 74bd 5a62 aebc b6e2 08bd f58a febc
000000b0: 6c5f 3abd df07 82bd 9f28 42bd 35a0 4abd
000000c0: 4c0e 61bd f196 4abd 07d5 cfbc 6554 3dbc
000000d0: 6662 1bbd d82d 39bd 0368 3cbc 661b 72bd
000000e0: f5d9 7abd d02d 1cbd 016c 3dbd 0f11 67bd
000000f0: 924e 7fbd b1c9 1bbd a6bd 16bd 5578 f1bc
-0.05231271 -0.035459302 -0.038957402 -0.05121716 -0.04966668 -0.006657496 -0.02917939 -0.018766448
-0.06205619 -0.035806287 -0.060055025 -0.049273793 -0.05074975 -0.0317456 -0.04008314 -0.0018589622
-0.019809617 -0.038050123 -0.028731659 -0.009910162 -0.0335412 -0.063314445 -0.051708054 -0.02538642
-0.037747465 -0.031165695 -0.06615942 -0.0582864 -0.056978803 -0.03026952 -0.02359104 -0.0017570737
-0.049010452 -0.03547357 -0.04744042 -0.03213149 -0.023027206 -0.02810977 -0.04862654 -0.051999547
-0.05960171 -0.021287132 -0.033419333 -0.03107212 -0.045501158 -0.063491575 -0.04740202 -0.04946919
-0.054945275 -0.049460355 -0.025370134 -0.011555766 -0.037935637 -0.045209736 -0.011499408 -0.05910816
-0.061243016 -0.038129628 -0.04624558 -0.056412753 -0.06233079 -0.038034145 -0.036801957 -0.029476324

gcn.batch_norms.1.module.running_mean f4 [64]
00000000: 1a5f f23e 8358 f0be 776f f73b 402b 61be
00000010: 32ce 0dbf 2f97 3c3f ab84 d2bd 2ccb 0abe
00000020: 8f6c 14be 7bd0 02be 1aa1 543d cd71 9abe
00000030: 5303 203e 9e79 533e e4c3 37be d3a4 0fbf
00000040: b686 57bd 9c4d 66bf 9774 c2be 177e d4be
00000050: 55a6 2b3e 2fb0 36bd 2420 0ebd 776c 043f
00000060: be64 253e 928e 44bd 1f97 32be 0bb8 6bbe
00000070: 661b 36be 3dfb f13c d9c8 02bf 2baa 363e
00000080: 51cf 32be 8fd3 9fbd 28e7 69be 2437 b73e
00000090: ace4 d73d ab61 39bf 88ef 3b3f 67f4 63bf
000000a0: 27b1 153e 280e 5fbd ca81 953e 40f9 583e
000000b0: f37b 353e 2ea2 05bf 0849 333e c209 90be
000000c0: b5a4 133f a330 93bd ffeb 843e 706a 093d
000000d0: 258c 913d b7d9 e63e 407f 52bd bcdd 08be
000000e0: fca9 42be dc5a 26bf 09a8 b4bd 57da 123e
000000f0: 8fbe aabe 3cb1 613f 439f 0e3e e07c 29bf
0.47338182 -0.4694253 0.0075511294 -0.21989155 -0.55392754 0.7366819 -0.10279211 -0.13554066
-0.14494537 -0.12774841 0.05191145 -0.30164948 0.15626268 0.20651862 -0.1794582 -0.56110877
-0.052618705 -0.8996217 -0.37979576 -0.4150245 0.1676267 -0.044601616 -0.03469862 0.51728004
0.16151711 -0.04798753 -0.1744046 -0.23019426 -0.17783889 0.029538745 -0.5108772 0.17838351
-0.17461897 -0.078040235 -0.22842085 0.35784256 0.105416626 -0.72414654 0.7341237 -0.89044803
0.1461836 -0.05445686 0.29200584 0.21188831 0.17723064 -0.5220059 0.17508328 -0.28132445
0.576732 -0.07187011 0.259613 0.033548772 0.071068086 0.45087978 -0.051390886 -0.13365835
-0.19010156 -0.6498239 -0.08821113 0.14341103 -0.3334851 0.88161063 0.13927941 -0.6620617

gcn.batch_norms.1.module.running_var f4 [64]
00000000: 30ee 253e b44e 303e a1c2 623e 9033 363e
00000010: 75e4 143e b73e 843e 60d7 6e3e ce75 873e
00000020: 14b0 123e e9dc 333e 3912 5a3e 2f01 113e
00000030: 1516 4d3e d0b3 6e3e 7ca9 543e 4357 0b3f
00000040: 4565 e13e 4b2a be3e 09d4 8e3e c93a 493e
00000050: 3543 943e fc25 2e3e 669e 243e 75fc 773e
00000060: 0272 383e 089e b03e 1e9f 1e3e 953d 0f3e
00000070: abad 203e 80f8 973e 7007 513e 2ec6 c93e
00000080: 108e 093e 6bb1 2c3e 1456 873e 2480 de3e
00000090: 5d69 af3e 8fa2 043f 4294 773e f789 4b3e
000000a0: cbe6 133e be9d d33e 3555 9f3e c1f1 c43e
000000b0: 8dfd 1b3e 47da 613e bff4 923e 9e0e 533e
000000c0: abb4 493e 4306 403e 5a3c 3e3e d1f3 b73e
000000d0: f511 903e f87b 1c3e 4728 043f f976 0e3e
000000e0: 7533 393e d4b9 a63e feb4 153e 8b33 0b3e
000000f0: a973 373e 18d0 4b3e 56dc 3b3e 41b4 283f
0.16204143 0.17217523 0.22144558 0.17793107 0.14540274 0.25829098 0.23324347 0.26457065
0.14324981 0.1756474 0.21296014 0.14160608 0.20027955 0.2331078 0.20767778 0.54430026
0.44022575 0.37141642 0.27896145 0.19651331 0.28957525 0.17006677 0.16076049 0.24217398
0.1801224 0.34495568 0.15490386 0.13988335 0.15691249 0.29681778 0.20412993 0.39409012
0.13433099 0.16864555 0.2643286 0.4345714 0.34260073 0.51810545 0.2417765 0.19876848
0.1444351 0.41331285 0.31119695 0.38465694 0.1523344 0.22055922 0.2870235 0.20611045
0.19697826 0.18752389 0.1857771 0.35928205 0.281387 0.15281665 0.5162396 0.13912572
0.18086036 0.3256365 0.14619824 0.13593881 0.17915215 0.199036 0.1834577 0.65900046

gcn.attention.in_proj_weight f4 [192, 64]
00000000: 5ee6 2bbd 9027 44bc 77e3 133e aa51 da3d
00000010: a231 c8bd 1864 dabd 0ebd ee3d de57 4fbd
00000020: 9a29 bcbd 30ce 363c 67a0 90bd a630 76bd
00000030: 8be7 0a3e a25b 06be e178 0b3e 87a7 043e
00000040: 9a04 8fbd d939 bfbd cd54 a2bd c84c f2bc
00000050: ae51 19be c264 b6bd 0e84 883d c0b5 1d3b
00000060: 00c9 3dbb 962c 29bd ba4c de3d a0da e1bc
00000070: 3381 f0bd ea88 f5bd 7423 11be e2e5 da3d
00000080: d6c4 cfbd 60fd d53c 08ee adbc 26cb fabd
00000090: b689 7ebd f8cd 3cbd 805c 0f3b fc51 74bd
000000a0: 352e 0a3e cada e1bd 8873 8d3c a2b8 35bd
000000b0: be7d e53d 6088 09be dba4 afbd c03e 8d3c
000000c0: ff4e 003e 9c56 193d 841d c0bd 14a5 1ebd
000000d0: 08ee 193d 8460 fdbc 141a 9ebd 4a76 9d3d
000000e0: 2cf8 0cbe 0064 23bc e02f 4fbc 74b5 3e3d
000000f0: 1e88 bfbd 5215 fc3d eeac cebd 64b3 583d
00000100: edf8 b6bd a515 0d3e 2420 24bd 0a85 0ebe
00000110: 207b b03c 60fa ff3b c026 69bb 5cea 0dbe
00000120: 40ec 8c3d cae1 e13d 9c27 363d 970a 01be
00000130: 48b9 ba3d 5c20 abbd ea5f e73d 8685 dcbd
00000140: 821a 13be ac2e 7dbd 4251 b4bd bed8 5bbd
00000150: 222c ea3d 1b50 10be 8c6d 75bd 5a74 b03d
00000160: 37ba 073e 6f96 013e 2248 0bbd 8337 0f3e
00000170: a625 b63d effb dabd a25d c03d 30c0 5f3c
00000180: 92c8 ec3d 9216 bd3d 5cb2 a63d 1d58 0dbe
00000190: a0b2 143c 8e2e de3d 51be 94bd 7a13 a3bd
000001a0: eee7 da3d 37d4 18be c40c 3b3d e060 fb3c
000001b0: 8c36 a63d 0081 cb3a 8e57 d53d a04b fdbc
000001c0: 5a82 923d 7563 b0bd 6cf3 2e3d a9fb 0c3e
000001d0: 787c b6bd 2b27 183e 00ed 04be 2a59 05be
000001e0: 1447 b73d 040d 2b3d acb3 7d3d 0028 f139
000001f0: 6060 9f3c 44a1 12bd 7719 98bd 5a38 75bd
00000200: 6671 3cbd fb7c 0ebe 2880 a03c 34e0 a5bd
00000210: 78d5 40bd 6d43 033e 0a5d aa3d 206e 10bc
00000220: 90f0 123d be57 d93d 4cfd b8bd 0645 12bd
00000230: b9a3 dabd bb95 09be 10ac 06be 0903 1c3e
00000240: 600d fa3c 94f2 16bd 20af 9fbd ae84 e83d
00000250: 4079 ae3c 0093 073c e99d 10be ec00 3b3d
00000260: acb8 c8bd 9cfb 273d 8055 e2bb ce16 ee3d
00000270: bc3a 8e3d fc44 4fbd edc6 063e 2605 c2bd
00000280: 5e9b 0cbe d4a8 2f3d c298 f4bd 0028 0039
00000290: bc6e efbc 6086 be3b 74f8 44bd 15d7 b9bd
000002a0: c879 3abd 8c45 283d b9ac d2bd f24d fa3d
000002b0: 044d a73d b42b 9ebd 482a bb3d 16b5 0cbe
000002c0: e081 243c cc8e 083d f243 07be 80a3 b9bc
000002d0: f47d eebc 7ec8 dcbd 2bb7 abbd 0dfc 0abe
000002e0: 801d acba 4330 13be 90fb 073c 1057 2dbc
000002f0: a074 8c3d 60c9 a53d 9f77 0ebe 4849 653d
00000300: f807 6a3d 283d 9dbd 686d 93bd 0025 44ba
00000310: 13a3 82bd 36b8 c43d b0ce a13d ce37 9b3d
00000320: 801c c13b c75c e5bd 621d c6bd 7525 19be
00000330: 7089 4f3c 566b f83d 2cf2 51bd 80f0 b23b
00000340: 40cf e43b 7013 813c b4d1 46bd d82a a93d
00000350: 70c9 c13c 7a65 da3d c05a 28bc 7090 023c
00000360: f00b 043c 5228 f03d e08c b5bc 833f 023e
00000370: bb7c 1b3e 3e82 0abd 121c a33d 005d a4bb
00000380: 00e0 1cb8 ec42 063d 87d8 103e d073 143d
00000390: 98d8 ffbd a075 c23d 4663 28bd b2ff da3d
000003a0: 28fa 333d a485 2f3d 765f dabd 8558 aebd
000003b0: d671 d9bd e2b1 89bd 2ad4 40bd c5e9 033e
000003c0: af62 15be dc63 b5bd 3e14 d63d 0355 193e
000003d0: 47a3 87bd e67d 873d 7403 edbd f043 193c
000003e0: c6a0 c53d b80d aa3d 2067 323d 0c49 07be
000003f0: 866f bf3d b08c ad3d 1e5b 2cbd 809b d6bd
-0.041967742 -0.011972323 0.1444224 0.106601074 -0.09775092 -0.106636226 0.11657153 -0.050620906
-0.09187622 0.011157557 -0.07061844 -0.06010499 0.13564889 -0.13120893 0.1362033 0.12954532
-0.069832996 -0.093372054 -0.07926331 -0.029577628 -0.14972565 -0.08905937 0.066658124 0.002406463
-0.0028958917 -0.041302286 0.10854478 -0.027570069 -0.11743393 -0.11989005 -0.1417368 0.10688378
-0.10144965 0.026121795 -0.021231666 -0.12245779 -0.06214305 -0.046094865 0.0021875203 -0.0596485
0.13494189 -0.11028059 0.017267004 -0.044365533 0.11205624 -0.13430929 -0.085763656 0.017241836
0.12530135 0.037436113 -0.0938063 -0.03873165 0.03758052 -0.030929811 -0.07719818 0.076885775
-0.13766545 -0.009972572 -0.012645692 0.046559766 -0.09352134 0.12308754 -0.100915775 0.052905455
-0.089341976 0.13777788 -0.040069714 -0.13917938 0.021543086 0.0078118294 -0.0035576075 -0.13858932
0.068809986 0.11029394 0.04447137 -0.12601696 0.09117371 -0.083557814 0.11297591 -0.10767655
-0.1436558 -0.061812088 -0.08804561 -0.0536735 0.11434199 -0.14093058 -0.059918925 0.08615942
0.13254629 0.12655042 -0.034004338 0.1398602 0.088938996 -0.10692584 0.09392859 0.013656661
0.11561693 0.092328206 0.08139488 -0.13803144 0.009075791 0.10848723 -0.072628625 -0.07962699
0.10688768 -0.14924704 0.04566647 0.030685842 0.08115873 0.0015526116 0.1041709 -0.03091985
0.07153769 -0.0861272 0.042712614 0.13767876 -0.08910459 0.14858691 -0.12981033 -0.13022295
0.08949104 0.04176046 0.061938927 0.00045996904 0.019455135 -0.035798326 -0.07426732 -0.059868194
-0.046006583 -0.13914864 0.01959236 -0.08099404 -0.04707858 0.1281869 0.08318527 -0.008815318
0.03587395 0.106124386 -0.090326875 -0.035710357 -0.10675759 -0.13436024 -0.13151574 0.15235533
0.030523956 -0.036852434 -0.07797074 0.11353432 0.02129805 0.008274794 -0.14122738 0.045655176
-0.09800848 0.041011438 -0.006907165 0.116254434 0.069447964 -0.050602898 0.13161822 -0.09473638
-0.13731143 0.042885616 -0.11943199 0.00012221932 -0.029227607 0.0058143586 -0.048088506 -0.09074227
-0.045526296 0.04108195 -0.102868505 0.12221898 0.081689864 -0.077231795 0.09138924 -0.13740954
0.01004073 0.033339307 -0.13209513 -0.02266097 -0.029112794 -0.10780428 -0.08384546 -0.13572712
-0.001313135 -0.14373879 0.008299723 -0.010579839 0.06858182 0.0809505 -0.1391282 0.05597809
0.057136506 -0.0767768 -0.07198602 -0.000748232 -0.0637876 0.09605448 0.07900751 0.07579003
0.00589329 -0.111993365 -0.09673573 -0.14955695 0.012667045 0.12129848 -0.051256344 0.0054607987
0.006982714 0.015756339 -0.048539832 0.08260125 0.023655623 0.10663886 -0.010275543 0.007969007
0.008059487 0.117264405 -0.022161901 0.1271954 0.151843 -0.033815615 0.07964338 -0.0050159693
-3.7401915e-05 0.032778665 0.14145099 0.03624326 -0.12492484 0.094950914 -0.0411103 0.10693301
0.04393974 0.04285206 -0.10662739 -0.085129775 -0.106174156 -0.067233816 -0.047077335 0.12882145
-0.14588426 -0.08856937 0.1045308 0.14973836 -0.066229396 0.0661581 -0.11572924 0.0093545765
0.09649806 0.08303398 0.04355538 -0.13211459 0.09347443 0.084741 -0.042079084 -0.10478878

gcn.attention.in_proj_bias f4 [192]
00000000: 0000 0000 0000 0000 0000 0000 0000 0000
00000010: 0000 0000 0000 0000 0000 0000 0000 0000
00000020: 0000 0000 0000 0000 0000 0000 0000 0000
00000030: 0000 0000 0000 0000 0000 0000 0000 0000
00000040: 0000 0000 0000 0000 0000 0000 0000 0000
00000050: 0000 0000 0000 0000 0000 0000 0000 0000
00000060: 0000 0000 0000 0000 0000 0000 0000 0000
00000070: 0000 0000 0000 0000 0000 0000 0000 0000
00000080: 0000 0000 0000 0000 0000 0000 0000 0000
00000090: 0000 0000 0000 0000 0000 0000 0000 0000
000000a0: 0000 0000 0000 0000 0000 0000 0000 0000
000000b0: 0000 0000 0000 0000 0000 0000 0000 0000
000000c0: 0000 0000 0000 0000 0000 0000 0000 0000
000000d0: 0000 0000 0000 0000 0000 0000 0000 0000
000000e0: 0000 0000 0000 0000 0000 0000 0000 0000
000000f0: 0000 0000 0000 0000 0000 0000 0000 0000
00000100: 0000 0000 0000 0000 0000 0000 0000 0000
00000110: 0000 0000 0000 0000 0000 0000 0000 0000
00000120: 0000 0000 0000 0000 0000 0000 0000 0000
00000130: 0000 0000 0000 0000 0000 0000 0000 0000
00000140: 0000 0000 0000 0000 0000 0000 0000 0000
00000150: 0000 0000 0000 0000 0000 0000 0000 0000
00000160: 0000 0000 0000 0000 0000 0000 0000 0000
00000170: 0000 0000 0000 0000 0000 0000 0000 0000
00000180: 0000 0000 0000 0000 0000 0000 0000 0000
00000190: 0000 0000 0000 0000 0000 0000 0000 0000
000001a0: 0000 0000 0000 0000 0000 0000 0000 0000
000001b0: 0000 0000 0000 0000 0000 0000 0000 0000
000001c0: 0000 0000 0000 0000 0000 0000 0000 0000
000001d0: 0000 0000 0000 0000 0000 0000 0000 0000
000001e0: 0000 0000 0000 0000 0000 0000 0000 0000
000001f0: 0000 0000 0000 0000 0000 0000 0000 0000
00000200: 0000 0000 0000 0000 0000 0000 0000 0000
00000210: 0000 0000 0000 0000 0000 0000 0000 0000
00000220: 0000 0000 0000 0000 0000 0000 0000 0000
00000230: 0000 0000 0000 0000 0000 0000 0000 0000
00000240: 0000 0000 0000 0000 0000 0000 0000 0000
00000250: 0000 0000 0000 0000 0000 0000 0000 0000
00000260: 0000 0000 0000 0000 0000 0000 0000 0000
00000270: 0000 0000 0000 0000 0000 0000 0000 0000
00000280: 0000 0000 0000 0000 0000 0000 0000 0000
00000290: 0000 0000 0000 0000 0000 0000 0000 0000
000002a0: 0000 0000 0000 0000 0000 0000 0000 0000
000002b0: 0000 0000 0000 0000 0000 0000 0000 0000
000002c0: 0000 0000 0000 0000 0000 0000 0000 0000
000002d0: 0000 0000 0000 0000 0000 0000 0000 0000
000002e0: 0000 0000 0000 0000 0000 0000 0000 0000
000002f0: 0000 0000 0000 0000 0000 0000 0000 0000
0.0 0.0 0.0 0.0 0.0 0.0 0.0 0.0
0.0 0.0 0.0 0.0 0.0 0.0 0.0 0.0
0.0 0.0 0.0 0.0 0.0 0.0 0.0 0.0
0.0 0.0 0.0 0.0 0.0 0.0 0.0 0.0
0.0 0.0 0.0 0.0 0.0 0.0 0.0 0.0
0.0 0.0 0.0 0.0 0.0 0.0 0.0 0.0
0.0 0.0 0.0 0.0 0.0 0.0 0.0 0.0
0.0 0.0 0.0 0.0 0.0 0.0 0.0 0.0
0.0 0.0 0.0 0.0 0.0 0.0 0.0 0.0
0.0 0.0 0.0 0.0 0.0 0.0 0.0 0.0
0.0 0.0 0.0 0.0 0.0 0.0 0.0 0.0
0.0 0.0 0.0 0.0 0.0 0.0 0.0 0.0
0.0 0.0 0.0 0.0 0.0 0.0 0.0 0.0
0.0 0.0 0.0 0.0 0.0 0.0 0.0 0.0
0.0 0.0 0.0 0.0 0.0 0.0 0.0 0.0
0.0 0.0 0.0 0.0 0.0 0.0 0.0 0.0
0.0 0.0 0.0 0.0 0.0 0.0 0.0 0.0
0.0 0.0 0.0 0.0 0.0 0.0 0.0 0.0
0.0 0.0 0.0 0.0 0.0 0.0 0.0 0.0
0.0 0.0 0.0 0.0 0.0 0.0 0.0 0.0
0.0 0.0 0.0 0.0 0.0 0.0 0.0 0.0
0.0 0.0 0.0 0.0 0.0 0.0 0.0 0.0
0.0 0.0 0.0 0.0 0.0 0.0 0.0 0.0
0.0 0.0 0.0 0.0 0.0 0.0 0.0 0.0
