project/model.pth (torch, 600387 bytes, 164 tensors)

gcn.input_proj.weight f4 [64, 21]
00000000: 943a f63d 26e7 323c 0731 8bba 7f43 143e
00000010: 1868 1f3e 18ee 50be a67a f93d 961e 1dbe
00000020: ca4a 9a3d b241 3abd 946a 473e 26b4 90bc
00000030: 6692 e53d 4de4 40bd 4e57 1f3d d26e ec3d
00000040: 3495 4f3e 0fb1 2b3d 6789 9ebd 09e8 0a3e
00000050: d8ee cb3d 8092 d03d 2025 c53d ce90 3abd
00000060: c8a6 453e baac 0e3e 39a9 4b3d ff73 823d
00000070: a985 c6bc 9033 8ebd dd68 213e e106 1a3e
00000080: 9a2f dbbb 2ca2 1a3e 4e5b 933d 24cb fbbd
00000090: a2dd 46be 3a45 563c adc0 c33d d709 15bd
000000a0: 6c53 da3c a69c 223d f3da 18be c8bb 7f3e
000000b0: 7c99 693e a119 37be 6c11 123e a3c6 a2bc
000000c0: 957a 14be 88a3 fbbd c791 ad3d e568 b53c
000000d0: 3aa3 15bb fdb5 a1bd 52bc 8bbd 5841 dd3d
000000e0: 80ee 0d3e e522 2c3e 3ccd 83bc 4723 d2bd
000000f0: ee9a 22be cc1e fd3d 4fad 86bd 6ee5 313e
00000100: d289 09be f260 20bd 86a5 bebc 1945 733d
00000110: c8ba a33c c3eb 33be 65e9 2a3e cd22 393e
00000120: d38e 573e 7b21 233d 28a1 9c3d 25b1 dd3c
00000130: 1d60 aa3d 8228 f43c ab1a 9e3d be8f 153c
00000140: 1cbe 10be 6a10 8bbd 1bf8 933d 94e7 3dbe
00000150: 1837 96bd b395 f43d ee29 54be 0e4a 49be
00000160: c828 84bc 7a5f 7dbd 1d0b 793d ea31 6abc
00000170: ed6b 60bd e759 2a3c a89c 1e3e b18b 14be
00000180: 9abf 933c de0f 00be 8474 33be 9218 acbc
00000190: 682a a33d 300d e5bd 0eba 163d 5ebe b8bd
000001a0: ffb6 e0bd e8da 55bd c857 9bbd 2ca3 463e
000001b0: 7207 033e 235e 53be 6a48 0b3e 7593 3ebe
000001c0: 6dd7 3a3e 3220 d0bd ddb9 a1ba 3170 443e
000001d0: 4a05 083e 3746 30be 9323 1abe f650 43be
000001e0: 2eaf bdbc 9330 36bd 0b51 223e b59f 97bc
000001f0: 81d0 f6bd 165a 843e 37a5 20bd ffab 4c3e
00000200: aed6 ba3d 88b8 02be dc29 13be 26fe 323e
00000210: 1ffa 653d e932 b6bd 9eb3 383e cabd ca3d
00000220: d9d4 24be 540c c5bd fc7b 3e3e b2ac 4d3d
00000230: e166 b5bd 5fc7 423c ed8b 9dbd 4a42 4abd
00000240: 7918 0e3e b03d c53d eecd 853d c0c4 10bd
00000250: c8a2 b0bd 4062 b13d d495 ee3d bd1d eb3d
00000260: 4ae1 a03c 125f 2e3e 1dd4 cb3d df5f 233e
00000270: 956e 90bc 6c12 11be d6b9 1dbe 9792 7bbb
00000280: f0c2 3abe 600a b5bd df41 d13d e981 e63d
00000290: 1cee b3bd 3749 093e 595c 413e d136 b2bd
000002a0: ea5a 51bd 38ef 2d3e 4a1d 3b3e 260c 373d
000002b0: 4586 21bd 9bb0 c4bc 5d25 24be f8af fc3d
000002c0: 10b4 53bd 5100 293e 6239 9f3d ff75 bdbd
000002d0: 7e1f 8bbc 2b29 16be 4656 e2bd 325c 363e
000002e0: 449a 10bd b6aa 8dbd 5f4f 263e fca7 5cbb
000002f0: 0ec6 c3bc 1566 463e e55b c3bd 2e21 2b3e
00000300: e51d f03c a793 f23d 2e35 0bbe d778 b03d
00000310: 770d 43bd ef08 5cbe 34ca b83c 761c 323e
00000320: ba9b ca3d 71c2 ee3d 6591 24bd 7a4c 073e
00000330: bc90 043e 5abb 13be 934f 0cbe d430 77bd
00000340: bef9 d4bd 4351 403e 23ad 56be a60a 683c
00000350: d792 2f3e 6349 073d 1115 3b3d 234b 463e
00000360: 7060 d43d b67d 303e 3de6 95bc a546 443e
00000370: ab0e 07be b563 3bbe c49d 2d3e 8472 42be
00000380: 6bda 683c 636e 523e 0d30 12bc d9e0 a03d
00000390: 0c41 13be 02b2 0cbe f0be b53d ede4 833c
000003a0: 517f 42bd ebea d53d cd2c ffbd f693 5fbe
000003b0: df49 a7bd 7508 39be c6c0 b83d de2f 16be
000003c0: 9a2b e1bd ad6d a4bd f395 013e 241d 0bbe
000003d0: ff84 d73c c48d 90bd a5ee cbbd bf7a 47be
000003e0: c4a7 cf3d 95a4 e8bd 7627 39be eb2d b7bd
000003f0: 476d b6bd 9be0 b1bd 9084 fdbc 51c5 eb3d
0.12022892 0.010919368 -0.001061947 0.14478873 0.15567052 -0.20403326 0.121815965 -0.15343699
0.07533796 -0.04547281 0.1947425 -0.017664026 0.11209564 -0.047092725 0.03890162 0.11544575
0.2027176 0.041916903 -0.07741051 0.13565077 0.09957665 0.10184193 0.09626222 -0.045548253
0.19301903 0.13933077 0.04972193 0.06369781 -0.024233656 -0.069434285 0.15762658 0.15041687
-0.006689024 0.15100926 0.07195149 -0.122946054 -0.19420484 0.013078028 0.09558234 -0.036386337
0.026651107 0.039700173 -0.14927272 0.24973977 0.22812456 -0.1788087 0.14264458 -0.019870108
-0.14499886 -0.122870505 0.084750704 0.022144744 -0.0022832886 -0.0789604 -0.068230286 0.10803479
0.13860512 0.16810186 -0.016089074 -0.10260635 -0.15879413 0.1235939 -0.06576025 0.17372677
-0.1343148 -0.039154954 -0.023272287 0.05939207 0.019986525 -0.17570405 0.16690595 0.18079682
0.21050577 0.03982685 0.076479256 0.027062008 0.083191134 0.029804472 0.0771993 0.009128509
-0.14135021 -0.0679024 0.07225057 -0.18545371 -0.07334727 0.11942615 -0.2071912 -0.19657156
-0.016132727 -0.06185863 0.060801614 -0.014294127 -0.054790426 0.010397411 0.15489447 -0.14506413
0.018035699 -0.12506053 -0.17524916 -0.02100781 0.07967073 -0.11184156 0.03679853 -0.09020685
-0.10972404 -0.05221072 -0.07585102 0.19398183 0.12795809 -0.20641379 0.13601843 -0.18610938
0.18246241 -0.10162391 -0.0012338717 0.19183423 0.13283268 -0.17214285 -0.15052633 -0.19073853
-0.023154821 -0.044479918 0.15851228 -0.018508771 -0.12051488 0.2584998 -0.03922006 0.19987486
0.09122978 -0.12765706 -0.14371437 0.17479762 0.056146737 -0.08896429 0.18037269 0.09899481
-0.1609682 -0.09621492 0.18601984 0.050213523 -0.08857513 0.011888354 -0.07692704 -0.049379624
0.13876523 0.096309066 0.065334186 -0.035343885 -0.08624798 0.08661318 0.11649671 0.114802815
0.019638676 0.17028454 0.09952567 0.1595454 -0.017630855 -0.14167184 -0.15402922 -0.0038386935
-0.18238425 -0.088398695 0.10217642 0.11255247 -0.0878565 0.13406835 0.18882884 -0.08701862
-0.051112093 0.16985786 0.18272892 0.04468932 -0.03943469 -0.024009993 -0.16029878 0.12338251
-0.051685393 0.16504027 0.07774617 -0.092510216 -0.01698279 -0.14664142 -0.110516116 0.17808607
-0.03530337 -0.06917326 0.16241215 -0.0033669462 -0.02389815 0.19374879 -0.09539012 0.16711876
0.02931113 0.11844569 -0.13594505 0.08616798 -0.047620263 -0.21487783 0.022557355 0.1739367
0.09892984 0.116581805 -0.04017772 0.13212767 0.12945837 -0.14426938 -0.1370223 -0.0603493
-0.10399197 0.18780999 -0.20964484 0.014162695 0.17145859 0.03302897 0.045674387 0.193646
0.103699565 0.17235455 -0.018298263 0.19167574 -0.13189189 -0.18299754 0.16954714 -0.18988997
0.014212231 0.20549922 -0.008922589 0.07855386 -0.14380282 -0.1373978 0.08874309 0.016100371
-0.0474847 0.10445198 -0.12459717 -0.21833786 -0.08168387 -0.18069632 0.090211436 -0.14666697
-0.109946445 -0.080287315 0.12654857 -0.13585335 0.026308535 -0.0705829 -0.09957627 -0.19480418
0.10139421 -0.113595165 -0.1808146 -0.08944305 -0.08907562 -0.08685418 -0.030947 0.115122445

gcn.input_proj.bias f4 [64]
00000000: 7078 2fbd a861 65be fa9a 2f3c bfb5 1b3e
00000010: 71c8 d6bc 450e c33d 343c 65bd 55da 253d
00000020: f04b dabd 2fc3 5e3e 5eb7 f1bd 53de 20be
00000030: ef74 603e 3b59 71be 39fb 9ebd 19d2 013e
00000040: 2bf5 053e abc8 0a3e d964 dfbc 8c07 65be
00000050: ea64 20bd 8ada 113e 9881 663e dc4d 873c
00000060: 87fe 0abd 0c37 b5bd eb11 5cbd 4006 3f3e
00000070: e032 a73d 0725 ca3d da86 bcbd d116 513e
00000080: c4e8 3dbd 6614 2ebe c3cf 043e ae4a fdbd
00000090: 1a45 0b3e 46d5 55bd 1bd7 4d3e 6d4a 8cbd
000000a0: 1df6 5f3e 338b a8bc f1fe 02be 85f4 0fbe
000000b0: 566b 3d3e f905 4ebe 932c d3bd 7116 debd
000000c0: d598 553e 3f68 1c3e 2b5e 893c 2433 63be
000000d0: c631 693e fcc2 59be de47 3ebd ac4e 6d3c
000000e0: bc8d 923c 8349 c03d a34c 46be 7528 3bbe
000000f0: a78a 213e 4391 113c cb09 033e 5082 36be
-0.042839468 -0.22400534 0.010718102 0.1520605 -0.026218625 0.09524206 -0.055965617 0.04049142
-0.10659015 0.21754144 -0.11802553 -0.1570981 0.21919607 -0.23569195 -0.07762761 0.12677802
0.13081805 0.13553111 -0.027269768 -0.2236616 -0.03915874 0.14243522 0.22510374 0.016516618
-0.033934142 -0.0884839 -0.053728025 0.18654728 0.081640005 0.09870344 -0.092054084 0.2041886
-0.04636456 -0.16999969 0.1296988 -0.1236776 0.13600579 -0.052205347 0.20101587 -0.06850133
0.21871229 -0.020574188 -0.12792565 -0.1405812 0.18497977 -0.20119466 -0.10311236 -0.10844124
0.20859082 0.15274142 0.016768536 -0.22187477 0.22772893 -0.21265787 -0.046455257 0.014484089
0.01788985 0.09389021 -0.19365172 -0.18277152 0.15775548 0.008884731 0.12796704 -0.17823148

gcn.convs.0.bias f4 [64]
00000000: 9570 d7ba 7351 3d3a e30c 93ba 3850 3f3a
00000010: 4ca8 0a3a dfa3 22b9 083d 9fb8 aa37 6bba
00000020: 22a6 af39 c5a3 1bbb 3211 beb9 0ebf 98b9
00000030: b385 bdba 0e6a 133a 1203 f939 ef12 5eba
00000040: 7947 a6ba edd7 0637 d886 2f3a 57dd 12b9
00000050: 3ee7 00ba 8428 37ba 12c7 e539 5994 1bbb
00000060: 0111 3fba 8038 0fba 387a e83a bcd9 3a3a
00000070: 06b4 e93a 164e ebb8 837f 213a 28eb b2b7
00000080: d9b4 ebb9 724c 643a 925b dcb9 51a8 b0b9
00000090: 79dc 04ba 0447 24b9 c3db 273b 54d4 e4b9
000000a0: 6a7b 6cba 5c3e b9ba 9985 f538 aa08 8a3a
000000b0: 789c 9f39 5cb0 74b9 a66e 253a 5bd9 d33a
000000c0: 6772 713b 0c59 b43a ad9d eaba b46b d739
000000d0: 52f7 c2ba 2331 3339 faa8 20ba 4c42 d1b9
000000e0: 494f 413a 2374 803a caa7 3bba f5a1 743a
000000f0: 8dce 863a c536 b739 6216 3f3a 53bb 2aba
-0.001643675 0.0007221915 -0.001121905 0.00072980253 0.00052893604 -0.0001551057 -7.593079e-05 -0.0008972833
0.0003350238 -0.0023748737 -0.00036252436 -0.00029134046 -0.0014459401 0.00056234084 0.00047495269 -0.0008471449
-0.0012686095 8.0372965e-06 0.00066958135 -0.000140061 -0.000491727 -0.00069869333 0.00043826603 -0.0023739545
-0.00072886056 -0.0005463436 0.0017736619 0.0007127782 0.001783014 -0.00011220218 0.00061606633 -2.1328757e-05
-0.00044957435 0.0008708901 -0.00042029895 -0.0003369474 -0.00050682534 -0.00015666714 0.0025613166 -0.00043645746
-0.00090210757 -0.0014132964 0.00011707395 0.0010531147 0.00030443422 -0.00023335352 0.00063107384 0.00161628
0.003684187 0.0013759448 -0.0017899774 0.0004108824 -0.0014874733 0.00017089075 -0.0006128695 -0.0003991298
0.000737418 0.0009800236 -0.00071584864 0.0009331995 0.0010284946 0.00034945286 0.0007289407 -0.0006512899

gcn.convs.0.lin.weight f4 [64, 64]
00000000: 1eff 38be b8b6 4fbc 1705 35bd 59e9 b4bd
00000010: c6e0 82bd 42f2 fd3d a2b3 b13d 5fda b33d
00000020: de0b 2fbe 4f4f 273d f980 4b3e e9d4 ddbd
00000030: b97f 403e ad03 ffbd 63f8 27bd ef36 13be
00000040: 70c1 f7bc cf80 5cbe 0852 21be 16b6 b23c
00000050: 2319 2ebe c11f 21bd a292 1a3e 6d7d f13d
00000060: 7451 f4bd 6e41 36be 1fce fd3d 918e 573c
00000070: cbb5 023d 36e6 2b3e 48f9 05be 618e 3a3d
00000080: b6c7 e2bd da0f 8c3d 030e 083e c0f7 103e
00000090: 483b 0a3e 6516 a63d dbc1 52be 65bf 303e
000000a0: 5321 533e 0367 ed3c 4db2 4d3e 1fe6 4dbe
000000b0: e3fb 50be f0b1 0a3e f871 243d 7f40 183d
000000c0: d15f 07be e942 fcbc c771 483e 654a 1abe
000000d0: c81c 243e a6f9 5fbe adc1 883d 00bd 39bb
000000e0: cfa2 46be 2a65 283e ceb2 cc3d d76d babd
000000f0: dd5b 153e 2ff1 283e 79bf 5cbd fb52 36be
00000100: 8be2 5e3e 2646 9ebc 14da 4d3e 286e a0bd
00000110: 3366 163e 218d 0a3d c539 c03d c4c6 853d
00000120: 8a5d 893d 7e8e 39be be7c 3abe d2fa c5bd
00000130: 1ade 573e 117e 083e 33f4 d23d 13e6 443e
00000140: dea6 2abe 8665 063b 3a65 d33c b289 433e
00000150: 24b3 21be ec8e 82bd a043 ed3d 1358 693d
00000160: 43a0 b5bd 1e1f 4abe c669 afbd 0104 513e
00000170: 9fbe 37be c9d5 0b3e 7d28 debd c2e5 d9bd
00000180: cb59 323d 6b96 49be 0ba7 bd3d c9ed 12be
00000190: 3bca 4ebd d435 32bd 8f08 293e 767e 473e
000001a0: 43dd b33d 85ac 4e3e e2c7 513d 2d97 803e
000001b0: e5ec 08be e15c 5dbe 1561 9f3d d745 97bc
000001c0: 32c3 5cbe d2bd d5bd 7541 143e e309 c8bd
000001d0: ebce 423e 32a1 123d 44c7 00be 03a3 6d3b
000001e0: c41a cebd f2e9 a7bd c001 67be 1948 3c3e
000001f0: a5d0 1ebd 2b49 07be 5acc 133e b368 cabd
00000200: eb95 8ebd ea14 89bd 196c 29be 67fd 4e3e
00000210: aa17 403e 800a e73d 2945 3d3e 077b 0abe
00000220: 0f10 813d 4c23 013e bcbe aebd 35a8 3b3d
00000230: d067 073e fd9c da3b 5517 353e 8d55 c23d
00000240: 318f 16be 1e28 053c 0b7c 253b bba0 41be
00000250: 611d 143e 45af 353e 1c7e cdbd b653 8b3d
00000260: 8e18 3fbe 90ee 1a3e 17b2 933d 859c bdbd
00000270: 1ff2 603d 937c b0bc 85c5 113e 6893 343e
00000280: 723e cf3d 11f7 143e cc59 393e a573 b93b
00000290: f722 373e 8e5d 1bbd 2238 473e f209 df3b
000002a0: 92f6 f5bd f771 e4bd 613e 29be 60d4 443e
000002b0: f551 6ebd 0112 aabc ebb7 263d 20e7 363e
000002c0: b25d 203d 878f f9bd 3c5c 21be d774 323e
000002d0: d86d dc3d da2d 9bbd 26be c93d 5e73 4c3e
000002e0: cd42 e23d 6aba 573e 21a1 ba3d d1b6 c83d
000002f0: 1d71 1a3e 4001 03be f7d5 7cbd 1e63 14be
00000300: 1ac8 18be e923 9dbb 6532 c33d c3f2 3d3e
00000310: 1aab 19be 01ad 41be ede5 c8bd bbb9 c83d
00000320: fb06 ccbd 70b5 c5bd 435f b2bd b0fc f5bb
00000330: 7b8c 5e3d 45ba e9bd 6037 603d 5017 373e
00000340: 50e7 363d 3b7c 0cbd a002 d63d c785 c4bd
00000350: 1317 52be 3e47 1b3c e236 0fbe 89ae 17be
00000360: 0a7a 2cbe 0c44 f5bd 577d a3bd 5de1 3a3e
00000370: 40ae 163e 57af 8c3c 2aa1 c5bd 4df9 49be
00000380: dbcf 663d a62d 3dbe b273 6cbd bcf2 a7bd
00000390: 89f2 613e 89a4 b13d b03f 00be 18ff 573e
000003a0: e029 25bd 1ee2 143e acbd 39bd af28 073e
000003b0: 3b8f 4abe d0e5 303e 13f5 14be 6732 bbbd
000003c0: 3b66 39bd 4052 c83d 48b7 5bbd d981 2fbc
000003d0: 39ee 2abe d78e 2d3e acc1 063e 56f2 333e
000003e0: f917 16be d970 46be 7c62 c53d b3af 4ebe
000003f0: af03 3ebe 389b 2b3d c591 3ebe b6ad 17be
-0.1806607 -0.012677841 -0.044194307 -0.0883357 -0.063905284 0.12399723 0.0867684 0.08781885
-0.1709437 0.04084712 0.19873418 -0.10831625 0.18798722 -0.12451873 -0.041008364 -0.14376424
-0.030243605 -0.21533512 -0.15753949 0.021815341 -0.17001776 -0.039336924 0.15094998 0.11791501
-0.119295985 -0.17798397 0.1239283 0.013156549 0.031911653 0.16787037 -0.13083375 0.04554594
-0.11073248 0.06838961 0.13286595 0.14157009 0.13499177 0.0810974 -0.20581762 0.17260511
0.20618181 0.028979784 0.20087548 -0.20107315 -0.20408587 0.1354444 0.04014775 0.037170883
-0.13220145 -0.030793624 0.19574653 -0.15067442 0.16026604 -0.21872577 0.06677566 -0.0028341413
-0.19398044 0.16444841 0.09995042 -0.091029815 0.14585824 0.16498254 -0.05389354 -0.17805092
0.21766107 -0.019320559 0.20102721 -0.07833511 0.14687423 0.033825997 0.09386019 0.06532052
0.06707294 -0.18120763 -0.18211648 -0.09666981 0.21080819 0.1332934 0.103004836 0.19228391
-0.16665217 0.002050729 0.025805105 0.19095495 -0.15790993 -0.063749164 0.11585164 0.05696876
-0.08868458 -0.19738433 -0.085650966 0.20411684 -0.1794381 0.13655771 -0.10847566 -0.10639526
0.043542664 -0.19686286 0.092603765 -0.1434852 -0.05048583 -0.043508366 0.16507171 0.19481835
0.08782437 0.20182998 0.051216014 0.25115338 -0.13371618 -0.21617462 0.07782189 -0.01846592
-0.21558836 -0.10436596 0.14478095 -0.09767511 0.19024245 0.03579826 -0.12576014 0.0036260493
-0.10063699 -0.081989184 -0.22559261 0.18386878 -0.038773198 -0.13211505 0.14433423 -0.09883251
-0.06962188 -0.06693442 -0.16545142 0.20213853 0.18759027 0.112812996 0.18483414 -0.13523494
0.06301891 0.12611121 -0.085324734 0.04581471 0.13223195 0.0066715465 0.17684682 0.09488974
-0.1470306 0.00812724 0.0025250937 -0.1890897 0.14464332 0.17742641 -0.10033819 0.06803076
-0.1866171 0.15130067 0.07211702 -0.09258369 0.054918405 -0.021543777 0.14235504 0.17634356
0.101193324 0.14547373 0.18100661 0.005659538 0.17884432 -0.037931018 0.19455007 0.0068066055
-0.1200992 -0.111545496 -0.16527702 0.1922164 -0.05818363 -0.020760538 0.04070274 0.17861605
0.039151855 -0.12185579 -0.15757841 0.17427383 0.107631385 -0.07577105 0.09850721 0.19965884
0.110478975 0.21067205 0.09112764 0.098004945 0.15082212 -0.12793446 -0.06172749 -0.14490935
-0.14920083 -0.0047955406 0.09531096 0.18549637 -0.15006676 -0.18913652 -0.0980948 0.0980105
-0.09962269 -0.09653747 -0.08709576 -0.0075069293 0.05433319 -0.11412481 0.05474031 0.17879987
0.04465419 -0.034298163 0.104497194 -0.095958285 -0.20516615 0.009477435 -0.1398578 -0.14812674
-0.16843429 -0.119758695 -0.07982891 0.18250032 0.14714909 0.017173452 -0.0964988 -0.19724007
0.05635057 -0.18474445 -0.057727523 -0.08200595 0.22065176 0.08673961 -0.12524295 0.21093404
-0.04032314 0.14539382 -0.0453469 0.13199113 -0.197812 0.17275167 -0.14546613 -0.09140473
-0.04526351 0.09781313 -0.053641587 -0.01071211 -0.16692437 0.1694902 0.13159817 0.17572913
-0.14657582 -0.19378985 0.09637925 -0.20184211 -0.18556093 0.041896075 -0.18610294 -0.14812359

gcn.convs.1.bias f4 [64]
00000000: 70b6 b83a f20c d939 3891 b0b7 4cc0 47ba
00000010: fea9 4839 1e74 7cb9 9b8f 68b9 0618 0739
00000020: 1fc5 b63a 7c2f ba3a 36cf 64ba 5a3f b0b9
00000030: bf6a 98b9 8a03 4e38 0d4c 5939 ef7b 09ba
00000040: b378 70b6 4d76 9cb9 1ede 24b9 b40a 933a
00000050: 162e 2cb9 a779 5eb9 1211 20ba d9ef a4b9
00000060: 9f50 553a 3e8b 05b9 c3b3 aab8 56ad 9239
00000070: e230 b7b9 43c6 56ba e5d6 e6b9 1c76 4539
00000080: 4c7c 143a a8e6 333a c866 80b9 c2e2 613a
00000090: 4bfb 8039 e08c 1fba 0657 8938 b16a 7c39
000000a0: b78a 81b9 4e33 93ba a815 b236 ab16 16bb
000000b0: cde6 89ba 1115 0aba a1bd 9739 b469 bd39
000000c0: 2a8b e03a a31e 65bb 34d4 98b8 a622 5cb9
000000d0: 5cb7 9bb8 4db5 9238 f234 13ba 9939 67b9
000000e0: e22f 0aba eba5 2939 30fa 2b38 483d 0aba
000000f0: fe6d 58b9 0ff4 75ba 1ec4 8db9 add2 983a
0.0014092457 0.0004139911 -2.1048458e-05 -0.0007619902 0.00019136813 -0.0002407585 -0.00022178741 0.00012883553
0.0013944245 0.0014204825 -0.00087283866 -0.00033616537 -0.0002907123 4.9117523e-05 0.00020723064 -0.0005244603
-3.5833043e-06 -0.0002984278 -0.00015723004 0.00112184 -0.00016420367 -0.00021216889 -0.00061060593 -0.00031459218
0.00081373187 -0.0001273574 -8.139715e-05 0.00027976435 -0.000349409 -0.00081929954 -0.00044029127 0.00018831383
0.00056642736 0.00068626786 -0.0002449064 0.00086168584 0.0002460129 -0.00060863607 6.5488784e-05 0.00024072338
-0.00024708148 -0.00112305 5.3073345e-06 -0.0022901695 -0.0010521055 -0.00052674214 0.0002894225 0.00036127644
0.0017131318 -0.0034960888 -7.287451e-05 -0.00020993743 -7.425129e-05 6.9955924e-05 -0.00056154944 -0.00022051334
-0.00052714173 0.00016178905 4.1002582e-05 -0.0005273414 -0.0002064034 -0.0009382376 -0.00027039734 0.0011659466

gcn.convs.1.lin.weight f4 [64, 64]
00000000: a984 4fbe 0e59 4ebc 7d76 3c3c db62 073c
00000010: 2b7a 5d3c 5b0f 3ebe 778d 0fbe 7d88 583e
00000020: 271d fb3c 3bce 1c3e 425d 273e da85 973d
00000030: 721d 253e 29d4 133e 3d61 a0bd a020 613c
00000040: 37d3 533b f82b 3d3b 79db 543e 70cd 30be
00000050: 1f73 03be 696d 423d e16a 0c3e ed1c 623e
00000060: 626b d03b d0b1 053d 84fc 823d d3ea 243e
00000070: 9bcc 3fbe df69 453e ca36 3e3e 50a0 10bd
00000080: 8c3f d3bd b714 47be b79d 463e 9ebf 52be
00000090: 94b2 2dbe ad1c 003e 9fbe 2ebc 901f c2bd
000000a0: bb72 b63c f33a 903d 1836 1bbe 53a7 4e3e
000000b0: cdb3 423e d9d2 1b3d b9ed 293e 402b 76be
000000c0: b696 1c3d 2d87 d73c a0ea 3dbe bdb1 cbbc
000000d0: 7675 8a3d c19e 19be da99 383e b8ab b83d
000000e0: 6606 e23d 047e 94ba 2d37 a13d 0286 7c3d
000000f0: 5aaa c33d 6070 4a3e c4fc 343e 2a61 103e
00000100: 5f0a a63c 28ed 87bd c137 393d 70d6 47be
00000110: 4ede ac3c 52a5 9c3d fb23 33be ee3f 4cbe
00000120: 904e 3e3e ea0b 4dbe fe4b 87bd 9d66 963d
00000130: a398 40be 5edb b03c ccec 583c 9b68 d73d
00000140: bf7e 043d 8675 2c3d 6372 d1bd 2078 17be
00000150: 3eb7 1b3e c425 423e 65fd ba3d b47d 40be
00000160: 6138 1b3e ce2a 083e 9e61 a73d 8a98 993b
00000170: 8280 403e 762e 073d 0b6d ee3d f9bc 003e
00000180: 8c5a 75be 1245 c33b 8297 9abd 16ab f43d
00000190: 751c ca3d 0d40 d83d 693b 4e3e 09a2 363e
000001a0: 9e2a d53c 8686 f63c 9003 e43d 563d fabc
000001b0: 72b1 adbc 1e66 073d cab7 29be 73dd 893b
000001c0: 045f b03d 328c 2f3e 8142 35be 718a 87bd
000001d0: e1f6 223d 7945 bf3c 7bd0 12be c86e 06be
000001e0: 956b d6bd ee37 303e 4152 2b3e b35e 9a3d
000001f0: f99a 56be 0fa7 17be 2cff 33be 7e64 26bd
00000200: 7b4a 183e f497 b5bc 236f 2c3c d418 153e
00000210: 403e 61bd ea2e 8ebd 5a37 aebc 5beb e8bd
00000220: d8e7 3f3e 1a51 5bbe 0f40 0dbe c2b5 c5bd
00000230: f519 54bd e5b3 3b3e a98c 143e da00 6dbd
00000240: 2978 d9bd 7674 cf3d 403b 0b3d e401 183d
00000250: a78b 24be 5e8f febd 7bb6 0abd 8690 073e
00000260: 97bd 34be 01b3 65be 26ca 343e 9070 433e
00000270: 6257 96bc f82f 6dbd a2de fd3d c156 0ebe
00000280: 00c2 1ebe 59fc 13be 34a4 63bd 58c8 92bd
00000290: a329 46bd 42c8 fc3c fd18 cb3d 812f 613d
000002a0: 96d4 4bbd 10df dcbd 1407 a03d 501c 02be
000002b0: b6e3 2dbe b80d e6bc 34d1 373e 7511 c33c
000002c0: 3a24 1cbe 530b 10be 85ef c13d 697b 16bd
000002d0: b067 1a3d 1169 733d 28b0 17be 607d 03be
000002e0: b950 9dbd 9196 293e 4619 2dbe 3071 a83d
000002f0: 5cf9 29be 3585 39be 66a1 b2bd 6343 02bd
00000300: 8fc2 6c3c 79f4 5cbe f0f6 06be 27f1 ca3d
00000310: b28f 2b3e e282 bf3d 1981 ffbd 0541 fa3b
00000320: c5d4 37be 9745 23bd c752 583e e643 153e
00000330: d0ce d73c 2474 2b3e 0bea c23c 21ef 6cba
00000340: da32 11be ad58 36be 0cb3 2e3e 0f6b 283e
00000350: 00b6 2b3e 39eb d73d 4b9c 283e eebe 4e3e
00000360: 9669 e63b a567 dd3d 4d21 99bc 3a65 fa3c
00000370: f46d fcbb 257d f63d 9b25 d1bc a090 5fbe
00000380: 10a2 133e d170 47be b97e b03d 563b f9bd
00000390: 56b1 23be 74d4 19be 3a63 5c3e 8da1 643e
000003a0: 218b 5bbd a4bb 2d3d cee5 07be 612c c83d
000003b0: b393 d63d c312 1a3e ee68 403e 3658 14bd
000003c0: 5326 123e 3390 5cbe 2cf6 babd ac91 fc3d
000003d0: 3aab 4ebe 464f 403e 7039 30ba 9aa9 023e
000003e0: 5940 a1bd 009d 89bd 90c4 10be f53c f0bc
000003f0: 43e7 193e d632 7ebd 4aa2 313c 36e1 b2bd
-0.2026545 -0.0125944745 0.011502859 0.008263315 0.013517897 -0.18560545 -0.14018808 0.21145816
0.03065355 0.15313046 0.16344169 0.07398577 0.16124514 0.14436401 -0.07831047 0.013740689
0.0032321939 0.0028865319 0.20786847 -0.17265868 -0.12836884 0.047467623 0.13712646 0.22081347
0.0063604573 0.03264028 0.0639582 0.16105203 -0.18730395 0.19278668 0.18575588 -0.035309136
-0.10314855 -0.19441496 0.19396101 -0.20580909 -0.16962653 0.12510939 -0.010665565 -0.09478676
0.022271505 0.07042494 -0.15157354 0.20181017 0.19013901 0.038042877 0.1659459 -0.24039936
0.038229667 0.026309574 -0.18546534 -0.024865026 0.06760685 -0.15001966 0.1802744 0.09017128
0.11036377 -0.001132906 0.07871852 0.061651237 0.09553976 0.1976943 0.17674547 0.14099565
0.020268617 -0.06637031 0.045219187 -0.19515395 0.021102097 0.0764872 -0.17494194 -0.19946262
0.18584657 -0.20024076 -0.06606291 0.07343791 -0.18808226 0.021588977 0.0132400505 0.10517999
0.032347437 0.042104267 -0.10226896 -0.14791918 0.1520662 0.18959719 0.091303624 -0.18797952
0.15158226 0.13297579 0.08172916 0.0046873735 0.18799022 0.033003293 0.11641892 0.12572087
-0.23960322 0.0059591616 -0.07548429 0.119466946 0.09868709 0.10559092 0.2013985 0.17835249
0.026021298 0.030093443 0.11133492 -0.030546825 -0.021202777 0.03305637 -0.16574016 0.004207307
0.08611873 0.17143324 -0.1770115 -0.066182025 0.039786223 0.023348557 -0.14337341 -0.13128197
-0.104697384 0.17208835 0.16730596 0.07537594 -0.20957555 -0.14809822 -0.17577809 -0.04062318
0.14872162 -0.022167183 0.010524544 0.14560252 -0.054991007 -0.06942542 -0.021266628 -0.113730155
0.18740785 -0.21417657 -0.13793968 -0.09653808 -0.051782567 0.18330343 0.14506783 -0.05786214
-0.10618622 0.10129635 0.033992052 0.037111178 -0.16068898 -0.12429689 -0.033865433 0.13238725
-0.17650448 -0.22431566 0.17655239 0.19085908 -0.018352214 -0.057907075 0.123959795 -0.13900281
-0.15503693 -0.14451732 -0.05557652 -0.07167119 -0.04837955 0.03085721 0.099168755 0.054976944
-0.049763285 -0.10784733 0.0781385 -0.12706113 -0.16981396 -0.028082713 0.17950898 0.023812035
-0.15248194 -0.1406682 0.09469513 -0.036738787 0.03769654 0.05942637 -0.14813292 -0.12840796
-0.07681412 0.16561343 -0.16904172 0.08224714 -0.1659903 -0.1811722 -0.087221906 -0.031802546
0.014450683 -0.21577634 -0.13180137 0.099092774 0.16754034 0.09351136 -0.12475795 0.0076371455
-0.17952259 -0.039861288 0.21125327 0.14576682 0.026343733 0.16743523 0.023793241 -0.00090383185
-0.14179555 -0.17807265 0.17060488 0.1644709 0.16768646 0.10542912 0.16465871 0.20190021
0.00703163 0.10810784 -0.018692637 0.030565847 -0.007703537 0.12035588 -0.025530627 -0.21832514
0.1441729 -0.1947663 0.086179204 -0.121695206 -0.15985617 -0.1502245 0.21522227 0.22327252
-0.05359948 0.042415276 -0.13271257 0.097740896 0.1047739 0.1504622 0.18790027 -0.036216937
0.14272432 -0.21539383 -0.09128985 0.12332472 -0.20182505 0.1878024 -0.0006722426 0.1276001
-0.078736015 -0.067193985 -0.14137483 -0.029325942 0.15029626 -0.0620602 0.010841915 -0.08734362

gcn.batch_norms.0.module.weight f4 [64]
00000000: c9e9 783f ba35 7d3f b64d 7e3f e5a2 7b3f
00000010: 093b 813f c821 843f 9cd7 7c3f 9fc3 7f3f
00000020: 90c4 813f 3d47 833f fab2 843f b496 7a3f
00000030: 337d 7b3f 6557 803f 8e01 7d3f 9c48 813f
00000040: 1811 7d3f fed8 7b3f 2a23 813f 8af6 823f
00000050: 60c6 7c3f c6ac 823f 8797 7a3f 1b7e 7a3f
00000060: bdb1 783f 018b 833f 474a 763f 7067 803f
00000070: 01b0 833f 0a7e 803f dbea 823f 78da 823f
00000080: 1401 813f 53fc 823f 2415 833f 2bb1 793f
00000090: 25b7 803f 3f22 7a3f d18f 803f 12b0 7e3f
000000a0: 8a13 813f f7fa 833f 954d 7a3f 0e4c 7d3f
000000b0: 0702 7f3f 0d8b 783f b0e3 793f e235 813f
000000c0: 04ea 7c3f a3e0 833f 1fca 813f 5768 7f3f
000000d0: 9d2e 7f3f a162 843f a10b 833f 0559 7e3f
000000e0: ac91 803f 6a91 7a3f be03 803f 9a51 803f
000000f0: e59a 803f 2ec2 803f eed7 7f3f 1cce 7d3f
0.9723173 0.98910105 0.9933733 0.9829543 1.0096141 1.0322809 0.98766494 0.9990787
1.0138111 1.0256115 1.0367119 0.97886205 0.98237914 1.0026671 0.988305 1.0100284
0.9885421 0.9837798 1.0088856 1.0231488 0.98740196 1.0208976 0.9788746 0.9784867
0.9714621 1.0276796 0.9620709 1.0031567 1.0288087 1.0038464 1.0227922 1.0222921
1.0078454 1.0233253 1.0240827 0.9753596 1.0055891 0.97708505 1.0043889 0.9948741
1.0084088 1.0310963 0.9777463 0.98944175 0.9961247 0.97087175 0.9761305 1.0094569
0.9879458 1.0302929 1.0139807 0.99768585 0.996805 1.0342599 1.0237924 0.99354583
1.0044456 0.97878134 1.0001142 1.0024903 1.004727 1.0059259 0.9993886 0.9914262

gcn.batch_norms.0.module.bias f4 [64]
00000000: 9f7c ffbc 6a6c a13c d68b 893c 0c36 023b
00000010: 15a7 ca3c 47dc 213d 0df8 583b f608 a7bc
00000020: 9678 da3c 8ecf 183d ee27 443d 5199 c93a
00000030: ee41 d13c 3d77 b63b 2bfd fe3c 788a 1d3d
00000040: 88de f23c b193 9d3b 8830 d33c 3b6a 313d
00000050: 5f06 a83c c0ec 373d c8b2 39bc 90a6 9bbb
00000060: 7d49 edbb 0d28 f23c 00b5 e5bb db9d c63c
00000070: 59dd e93c 45ef 123d 689c 203d 7191 013d
00000080: 1c3e a33c c733 293d a0e7 0e3d f966 853c
00000090: 9048 e83c 1dbc 983a 536c 0e3d bffe 983c
000000a0: f9bc 113d d65d 193d 45cc a83c 1c82 8d3c
000000b0: 98ac 833c 13c2 093c 00d2 7fba b62a 313c
000000c0: e2c8 683a 8cf1 253d c358 f33c 2330 f03c
000000d0: 2a54 f13c 64de 3f3d b425 1e3d 611c a93a
000000e0: b450 033d 74f4 1abb abab cf3c ddd2 0c3d
000000f0: 666f 163d 976c 2c3d feca a53c fb11 c43c
-0.031187354 0.019705016 0.016790312 0.001986864 0.024737874 0.039516713 0.0033106834 -0.020390015
0.026668828 0.037307315 0.047889642 0.0015380775 0.025544133 0.0055684135 0.03112658 0.038462132
0.029647127 0.004808866 0.025779977 0.0433142 0.02051085 0.044903517 -0.011334129 -0.0047500804
-0.0072414265 0.029560113 -0.0070101023 0.024245193 0.02854793 0.035872716 0.03921166 0.031632844
0.019927077 0.041309144 0.034888864 0.016284453 0.028354913 0.0011652742 0.034771275 0.01867616
0.03558061 0.037443005 0.020605216 0.017273955 0.01607351 0.008408087 -0.00097587705 0.010813406
0.00088800315 0.04051356 0.02970541 0.029319828 0.029459078 0.046842948 0.038610175 0.0012902134
0.032059386 -0.002364424 0.025350412 0.034380782 0.03672733 0.042095747 0.020238396 0.023934355

gcn.batch_norms.0.module.running_mean f4 [64]
00000000: d420 c03e fc56 d53d 7014 69be 9b0a 2e3e
00000010: 62b6 623e 06c8 b5bd 78c8 2d3b 92fd bc3d
00000020: 806c 663d 80af 17be 9e19 943d eee8 fa3e
00000030: 49ee 173e aa37 67bd de3a 063f a288 e33d
00000040: 1262 76be eea9 57bc 4358 d53d 32b6 00be
00000050: bec5 153d 4c0a de3d d297 933d ebe7 12be
00000060: 4411 ce3c 9987 8abe bdcc 9c3d 0342 903d
00000070: 83cf 27be c100 943d 1844 d8bd 5adb 2abd
00000080: 8a0f 183d 7f18 26bf 6f34 8cbe 0d4b 313e
00000090: fc6a edbd 1650 aa3d eb3f a8be 5b6d a43d
000000a0: 92d8 e23e 680f 603e 381c eebd 28e3 a8bc
000000b0: 5eb3 9dbc 3ef4 2c3c 2b3e 233d 456c 9d3d
000000c0: 013f eb3d 0740 86be f035 8a3e a69e 883e
000000d0: 43fc 99be 5c9a afbd 863e 953c 62e8 853e
000000e0: a32d 053e 0d3f 8abd eec1 123e 310a c0be
000000f0: 15a8 40be bfef b4be 9e26 16bd ec49 ba3e
0.37525046 0.104169816 -0.22761703 0.16996233 0.22139886 -0.08876042 0.0026517194 0.09228052
0.056255817 -0.14813042 0.072314486 0.49005836 0.14836992 -0.05644957 0.52433574 0.11110045
-0.24060848 -0.013163073 0.10417225 -0.12569502 0.036565535 0.10841808 0.07206692 -0.14346282
0.025154717 -0.27056578 0.07656238 0.07043841 -0.16387753 0.07226706 -0.10559863 -0.041713096
0.037124194 -0.6488113 -0.27383754 0.17313786 -0.11592671 0.083160564 -0.32861266 0.080286704
0.44305855 0.21880877 -0.11626476 -0.020616129 -0.019250568 0.010556279 0.03985421 0.076866664
0.114866264 -0.26220724 0.26994276 0.2668354 -0.30075273 -0.085743636 0.01821829 0.26153857
0.1300569 -0.06750307 0.14331791 -0.37507775 -0.18814118 -0.35339162 -0.036657922 0.36384523

gcn.batch_norms.0.module.running_var f4 [64]
00000000: 1548 fa3d e6a6 4a3e 047a 823e 3bd1 5b3e
00000010: 29af cc3d 6918 c63d 5b0f 133d d983 d63d
00000020: 37a0 943e 1cb2 983d ba66 9b3d 2fd1 883e
00000030: 8c21 6a3e 96a7 b03d 2cbf a03e 1b0f e53d
00000040: 6541 e03d bde5 6e3e c966 013e 3f7a 023e
00000050: 426c eb3d 6b2f 283e 97e5 353e 446c 5e3d
00000060: f316 363e 094c 043e 13e4 083e 1184 f53d
00000070: e9e7 9f3d 526b 053e b4fe 073e 3728 0d3e
00000080: 76cf 903e bd65 e33d ead6 173e 7a47 a33d
00000090: 71ec c23d 342e b83e 7e62 d63d ad5e 743e
000000a0: e6ae 493e 91b4 b43d 486c 463e 54c9 383d
000000b0: 6f45 db3d b6a5 483e f649 173e 79a1 963d
000000c0: 262c ae3d e15e 0b3e 3b45 f33d 463d 6c3e
000000d0: dce7 003e a8ad 3c3e 7008 923e 5362 043d
000000e0: 2192 8a3e c0b6 553e d33e ba3d 54ce 9b3d
000000f0: 8950 5f3e 91d1 ac3d 502b 843d 5cf8 2a3e
0.1222078 0.19790229 0.25483716 0.21466534 0.09994347 0.096726246 0.035903316 0.10474367
0.29028484 0.07455847 0.07587953 0.26722094 0.2286436 0.086257145 0.31395853 0.11184522
0.10949973 0.23329826 0.12636866 0.12741946 0.11495258 0.16424339 0.17763363 0.05430247
0.17782192 0.1291963 0.13368253 0.1198808 0.07807905 0.1302922 0.13280755 0.13784872
0.2828328 0.111033894 0.14828077 0.079726174 0.09517754 0.3597275 0.10468005 0.23864241
0.19695625 0.08823503 0.19377244 0.045113876 0.10706603 0.19594464 0.14774308 0.07355017
0.085045144 0.13610412 0.11878439 0.23070249 0.12588447 0.1842562 0.28522062 0.03232033
0.27064613 0.20870495 0.09094014 0.07607713 0.21808065 0.08438409 0.06453574 0.16696304

gcn.batch_norms.1.module.weight f4 [64]
00000000: 32f9 7c3f fa93 753f 79f3 803f 57d6 783f
00000010: 86ab 7a3f bf19 803f 5123 7a3f cb6b 783f
00000020: 4c2e 823f f378 853f db1f 843f 9867 7d3f
00000030: bea0 7c3f 0177 803f 2e30 853f 393d 7d3f
00000040: 3274 803f b97a 813f fe47 793f e347 7a3f
00000050: ce1a 7c3f 9277 813f 6cd2 7c3f a326 843f
00000060: 3ba0 803f ecd5 783f d9eb 783f 3887 803f
00000070: e7d1 7a3f d8f7 7a3f 07e9 813f af0d 7a3f
00000080: 284e 803f 473e 793f 65dc 783f b222 843f
00000090: dad1 7c3f 1ace 823f 4839 7e3f 3c04 833f
000000a0: d2b9 803f 8044 813f dabf 853f 421f 803f
000000b0: afb3 843f cf8b 7f3f 0628 783f 8ec1 7e3f
000000c0: 9826 803f 4718 843f 04f0 763f 4e78 823f
000000d0: 0c6f 7d3f c3b6 7a3f 10af 7d3f 9dee 7e3f
000000e0: a454 7a3f 750e 843f d451 7c3f 67e3 773f
000000f0: 55ba 833f 115f 803f bc1e 7e3f 65fd 7f3f
0.9881774 0.9592892 1.0074302 0.97202057 0.97917974 1.0007857 0.9771014 0.9703948
1.0170379 1.0427536 1.0322222 0.98986197 0.98682773 1.0036317 1.0405328 0.98921543
1.003546 1.0115577 0.97375476 0.9776594 0.984784 1.0114615 0.9875858 1.0324291
1.0048898 0.9720142 0.97234875 1.0041265 0.97976536 0.9803443 1.0149239 0.9767713
1.0023851 0.9736065 0.97211295 1.0323088 0.9875771 1.0219147 0.99306154 1.0235667
1.0056708 1.009903 1.0449173 1.0009539 1.0367335 0.99822706 0.9693607 0.9951409
1.0011778 1.0319909 0.96459985 1.0192964 0.9899757 0.9793512 0.9909525 0.99582845
0.977854 1.0316912 0.9856236 0.96831363 1.0291239 1.0029012 0.99265647 0.99996024

gcn.batch_norms.1.module.bias f4 [64]
00000000: d113 10bd 1c57 c4bc 15d4 64bd c1ad 10bd
00000010: 4e75 1bbd 5c1d 21bc d126 fbbc ef98 1dbd
00000020: 6db0 4ebd 6b61 68bd 99b5 80bd 5a3f d3bc
00000030: 71e4 25bd 0f85 e2bc 7809 34bd 27ea 5fbd
00000040: 82f9 70bd c88d c4bc 46ca d1bb 4783 53bd
00000050: 0b4c b5bb cfba 13bd 526c eb3b 28a2 76bd
00000060: 9711 6fbd 5d2e f1bc 5afe bbbc a5fc 39bd
00000070: af41 fabc 3c62 18bd cd7e 05bd 96ea 94bc
00000080: 64d2 50bd b98d 15bc 6c31 dfbc c97f e7bc
00000090: e62b 64bd ded0 cfbc ab05 ebbc 4e52 32bd
000000a0: 1c6d 27bd bbbd 4ebd ae5f 84bd 79f1 84bd
000000b0: a54a 41bd cdd6 07bd 9d6d c43b af67 39bd
000000c0: 3d3e 67bd 13c3 4bbd 37a1 d3bc 0ae5 7fbd
000000d0: 3e90 27bd c09d c9bb 8777 18bd cb97 1ebd
000000e0: 9445 09bc a36b 87bd a787 9abc 0990 14bd
000000f0: 4649 64bd 6d49 27bd 0869 e3bc 7cdd 61bd
-0.03517515 -0.023967318 -0.05586632 -0.035321955 -0.037953667 -0.00983366 -0.030658158 -0.038475927
-0.05046122 -0.05673353 -0.06284637 -0.025787044 -0.04050106 -0.027651338 -0.043954343 -0.054666664
-0.0588317 -0.023993388 -0.0064022867 -0.051638868 -0.0055327467 -0.036066826 0.0071845436 -0.060213238
-0.058366384 -0.029441053 -0.022948433 -0.045406956 -0.030548899 -0.03720306 -0.03259163 -0.018178266
-0.050981894 -0.009128028 -0.027245246 -0.028259175 -0.055705927 -0.02536815 -0.028689226 -0.043535523
-0.04087554 -0.05047391 -0.06463562 -0.0649137 -0.047190327 -0.033163834 0.0059945122 -0.045264896
-0.05645584 -0.049746584 -0.02583371 -0.062474288 -0.040909044 -0.0061528385 -0.037223365 -0.03871898
-0.008378405 -0.06612327 -0.018863512 -0.036270175 -0.05573394 -0.04084151 -0.027760044 -0.055142865

gcn.batch_norms.1.module.running_mean f4 [64]
00000000: 0e5b 423f 9a95 f23d ada6 38bf 1b76 e93e
00000010: f6ec bebe 48b3 9b3e 61ff 573f 6193 6b3f
00000020: 8ddb 2dbf 75dd 81be a08c 283d b1fc ed3d
00000030: 0964 9c3e cb4d 5dbb 7d78 323e 4440 54bf
00000040: 72de 923d ba84 563e a950 1a3f 8ec3 873e
00000050: 92aa 443e 1f87 2e3f f2eb e93e a856 d2be
00000060: ddcf a33e aa09 c339 ec4e 13be f61e 07be
00000070: 0508 a63e 16b3 1b3f b39d e63e 53f1 d93d
00000080: 28fa 3a3e c4e7 d8be 5322 143e 6499 053e
00000090: 8674 28bf 2cd6 eebd c212 a13e 2b4f e6be
000000a0: 50a3 95bd f35a 1f3d 1d1c 1bbf ca20 42be
000000b0: 726e 56bd fade 1a3e 5bfb 7cbd 525e 243f
000000c0: 88d8 0abf fe02 7f3e 8bf9 3b3e 6494 15be
000000d0: 3331 04bd f65b 033f 261e b73e 0e27 913d
000000e0: f739 643e c32a 943e 8868 a8bb 352d f23e
000000f0: e566 623e eb02 983e b3b0 5abf a91d cabe
0.7592019 0.118449405 -0.7212933 0.4559792 -0.37290162 0.30410218 0.8437405 0.9202176
-0.6791313 -0.2536427 0.041149735 0.11620463 0.3054507 -0.0033768292 0.17428775 -0.8291056
0.07171334 0.20949069 0.6027933 0.26516384 0.19205692 0.6817493 0.45687824 -0.41081738
0.31994525 0.000372005 -0.14385575 -0.13195404 0.32427993 0.6082014 0.4504219 0.10641732
0.1825949 -0.42364323 0.14466219 0.13046795 -0.658028 -0.11661944 0.31459624 -0.44982275
-0.0730654 0.038905095 -0.6058977 -0.1895782 -0.052351423 0.15124121 -0.06176315 0.6420642
-0.5423665 0.24903485 0.18356912 -0.14607388 -0.032273483 0.51312196 0.3576519 0.07087527
0.22287737 0.28938875 -0.005139414 0.47300115 0.22109564 0.29689726 -0.8542587 -0.39475754

gcn.batch_norms.1.module.running_var f4 [64]
00000000: 200c 003f 261b 863f ebe5 463e e91b d33e
00000010: 6de2 a43e cd9e cf3e dcc8 a53e dabe 9f3e
00000020: 978d 343e 4f06 2b3e 785d 173e 6943 883e
00000030: 0da8 a53e 17ae 533e d6ba 153e d150 843e
00000040: fb12 293e a38c 523e c99a f93e 9976 913e
00000050: fffe d03e 3953 373e e03d c73e 612e 233e
00000060: f845 343e 5206 b53e 1455 133f 62c7 473e
00000070: 3004 b43e f7c2 7f3e c1e9 693e 3b8f 333f
00000080: 1a07 823e 01b8 763f e42a 653e e612 223e
00000090: 8a63 583e 57f4 6f3e bc9a 333e e57c 4e3e
000000a0: 7f53 6d3e 45e8 5b3e 6aec 223e fe00 123e
000000b0: 85c2 3e3e f878 793e 3a59 f83e 7978 453e
000000c0: c2d7 343e f5d2 1a3e 7c4f 1a3f ea2f 3d3e
000000d0: 3ae5 723e b4ab aa3e a528 223e 1382 833e
000000e0: 0417 043f 8e89 2e3e 6efc e33e 5fd3 d43e
000000f0: 3b40 383e 4477 583e 3549 be3e b960 363e
0.500185 1.0477035 0.19423644 0.4123223 0.32204 0.40550843 0.32379806 0.31200296
0.17632137 0.16701625 0.14781749 0.2661393 0.32354775 0.20671879 0.14622054 0.25842908
0.16511147 0.20561461 0.48750904 0.28410795 0.40819547 0.1790284 0.38914394 0.15935661
0.17604816 0.35356385 0.57551694 0.19509652 0.35159445 0.24976717 0.22843076 0.7014043
0.25396043 0.9637452 0.22379643 0.15827522 0.21131721 0.23433052 0.17539495 0.20164831
0.23176382 0.21475323 0.15910497 0.14258191 0.18628891 0.24362552 0.48505574 0.19284238
0.1766043 0.15119536 0.60277534 0.18475309 0.23720255 0.33334124 0.15835817 0.25685176
0.5159762 0.1704466 0.44528526 0.41567513 0.17993252 0.21139246 0.37165228 0.17810334

gcn.attention.in_proj_weight f4 [192, 64]
00000000: 435c cfbd fe0f 04be 20c7 b0bb 6e5c e63d
00000010: a88e 2c3d 80ab e2bb 74e2 2ebd f076 44bd
00000020: 8002 4d3d 3ebd adbd d0af 023c 8060 9fbb
00000030: 160d bc3d c0b1 acbd c87b 413d 4065 513c
00000040: e3cc afbd a437 e0bd de2b ab3d 60fd b83c
00000050: 78d1 653d d0dd 4fbc 54d7 01be 72a6 9ebd
00000060: ee32 bebd 7181 dcbd 8018 963b 7529 10be
00000070: 62da dd3d d9b1 80bd 34f7 723d 237e 0cbe
00000080: e246 e93d 34c0 b8bd f089 a33c cbb9 14be
00000090: 0fba 033e 54b5 633d 49f0 0c3e 62ac f5bd
000000a0: 90c4 5abd e2b4 6dbd d092 993c 28b8 223d
000000b0: 50d0 51bc 8071 e2bb 11b7 113e 60f3 bb3d
000000c0: b00b 0e3d 30c7 3d3c 809c 94bd 08de 5a3d
000000d0: 0c2b 983d f26a f03d 9000 be3d d8b7 9ebc
000000e0: 31ff 1bbe 9805 c93c 38af f2bc 2cba 3e3d
000000f0: 900f 8abd 6937 033e 394b 093e cd39 0bbe
00000100: 95f6 053e 6447 0dbd 7b5e e5bd 2afd 63bd
00000110: f25e ca3d b2b7 973d 80a8 80bb 6049 20bd
00000120: b646 15be 039a 113e d457 aa3d e2ff 0dbd
00000130: 2c80 7d3d 0c64 74bd 45ef 173e 9874 9f3c
00000140: 98e0 16be 8516 86bd 06f5 933d 7426 933d
00000150: 3cf5 bbbd d81e e73c 2851 703d d23b c73d
00000160: 6026 743d 0768 acbd 8a89 26bd a472 c33d
00000170: 3040 91bc e22d e33d deac da3d dd53 8bbd
00000180: 2b40 0bbe be2b 47bd 0002 c43d bac7 d63d
00000190: c00c 14bb dc83 67bd ec47 13be eaee e1bd
000001a0: 7cf8 eebd 4d80 0d3e 26c9 943d c6b3 f73d
000001b0: 0082 6b3b 8e9d 80bd 30f9 8ebd 60ae 5bbd
000001c0: b6ae b53d f88f 1abd 1cc2 11bd f4d4 353d
000001d0: d132 07be 407e b23c 60fc 15be fc9c 3fbd
000001e0: 4c98 c13d fa04 fcbd 2028 3f3d 6de2 a9bd
000001f0: 1c47 efbd c8fe 893d 76db fabd d6af 0bbe
00000200: 3082 123d 6f31 9fbd 6e53 36bd 140c e7bd
00000210: 4e25 f73d 506e 913d 22b8 16bd 409c 2f3d
00000220: 0010 22ba 5faa 103e 6ee3 ab3d f420 61bd
00000230: 2200 dc3d 4897 e8bd b425 46bd 9899 acbc
00000240: 8037 c43c 748e 0d3d e429 553d 4665 c53d
00000250: 2cd1 6dbd 8816 d73c b023 423d 6872 9d3c
00000260: 724c fcbd a5de 043e 4223 5ebd 1ccf b6bd
00000270: 96eb 82bd 18a7 6c3d 802a 9c3c 60a3 823c
00000280: 78d1 423d 58a4 143d d284 07be 859f 0f3e
00000290: 3a32 d23d 30e5 933d 3c5b 433d 42b6 a7bd
000002a0: 889b 7c3d 7024 3ebd f51e cbbd 9eec f53d
000002b0: fc53 7dbd 9095 2f3c b297 44bd 5d04 093e
000002c0: dcc0 13be 9eb5 ef3d e1a5 013e 241d 143d
000002d0: 3a40 d13d 586f e3bc 3357 0d3e d3ce 0b3e
000002e0: 9f6a 113e c2c2 05be a28e 00be 08ea 9e3c
000002f0: 91b9 073e 88ac 7f3d 23a3 9fbd 9ecf 973d
00000300: b0f3 cbbc 0e76 19be be6c 41bd c086 1bbc
00000310: c6f8 72bd 58fa 003d 58f6 3ebd 3859 22bd
00000320: 7b97 123e f2b6 983d 104f 00bc e036 c03d
00000330: e013 c8bd 08d1 ae3d 8227 73bd 14c3 02be
00000340: 3043 fbbc 162d e23d f876 813d 0d93 82bd
00000350: 947f babd bb0e cdbd 2d61 033e 90b4 d3bd
00000360: 90f4 813c b6ae b13d 96db cebd 52cb ea3d
00000370: 3b37 17be 40ee 483b 406f 71bd 20c9 2e3d
00000380: f418 44bd eee3 a33d 5efe c93d bc8c 543d
00000390: 203d e1bb 4684 08be bc64 0a3d 84c8 20bd
000003a0: b046 6abd 1a18 8f3d dc6a 15be 7593 acbd
000003b0: f281 d23d 80cb f73b ff90 0fbe 8138 163e
000003c0: 6094 623c 1466 09be fbb1 073e 0062 87bb
000003d0: 4c87 4b3d d8f8 15bd c031 a93b ea21 843d
000003e0: f2e0 fe3d 593f 84bd f6f4 49bd a02e 1d3c
000003f0: 910d 1c3e 51ad 093e 0e2c d13d c01a 7fbd
-0.101250194 -0.12896726 -0.0053948313 0.11248098 0.042128235 -0.006917417 -0.04269643 -0.04796499
0.050051212 -0.08483361 0.007976487 -0.0048637986 0.091821834 -0.084323406 0.047237188 0.012780488
-0.08584001 -0.109481126 0.083579764 0.022581756 0.056107968 -0.012687162 -0.12679797 -0.07746591
-0.09287058 -0.107668765 0.0045805573 -0.14078315 0.10832669 -0.06283922 0.059317783 -0.13719992
0.11390473 -0.09021035 0.019963235 -0.14524 0.12863944 0.05559285 0.13763537 -0.1199577
-0.053410113 -0.05803383 0.018746763 0.039726406 -0.012806013 -0.006910503 0.1422999 0.091772795
0.034679115 0.0115831345 -0.072564125 0.0534344 0.074300855 0.11739148 0.09277451 -0.019374773
-0.15234067 0.0245388 -0.029624566 0.046564266 -0.067412496 0.12814106 0.13407601 -0.13596268
0.13082345 -0.03449191 -0.11199661 -0.055661358 0.09881391 0.07408084 -0.0039263368 -0.039132476
-0.14577755 0.14218907 0.08317533 -0.034667857 0.061889812 -0.059665725 0.14837368 0.019464776
-0.14734113 -0.06547264 0.07224469 0.07185069 -0.09177634 0.02821295 0.058671147 0.09728207
0.05960691 -0.08418279 -0.04065851 0.0954335 -0.017730802 0.11092736 0.10677503 -0.06803105
-0.13598697 -0.0486257 0.09570694 0.104873136 -0.0022590607 -0.056522235 -0.14382905 -0.11031897
-0.116684884 0.13818474 0.072649285 0.12094836 0.003593564 -0.06280051 -0.069811225 -0.053633094
0.08871214 -0.037734956 -0.035585508 0.04439254 -0.13202979 0.021788716 -0.14647055 -0.04678057
0.094528764 -0.12305637 0.046669126 -0.082951404 -0.11683485 0.06738049 -0.1224889 -0.13641295
0.035768688 -0.077731006 -0.04451316 -0.112816006 0.12067662 0.071011186 -0.036796696 0.04287362
-0.0006182194 0.14127491 0.08392988 -0.054963067 0.10742213 -0.113569796 -0.0483758 -0.021069333
0.023952246 0.034559682 0.052041903 0.09638457 -0.05806081 0.02625586 0.047397316 0.019219592
-0.12319268 0.12975557 -0.054232843 -0.08926222 -0.06392591 0.05777654 0.019063234 0.015947044
0.047563046 0.036289543 -0.1323426 0.14025696 0.10263486 0.072214484 0.04769443 -0.0818906
0.061671764 -0.04642147 -0.09918014 0.12008022 -0.061847672 0.010716811 -0.04799623 0.1338057
-0.14429039 0.117045626 0.12660934 0.036160603 0.10217328 -0.027763054 0.13802795 0.13653116
0.14200829 -0.13062575 -0.1255441 0.019398704 0.13254382 0.062420398 -0.07794788 0.07412647
-0.024896473 -0.1498644 -0.047222845 -0.009492576 -0.05931928 0.031488746 -0.04662165 -0.039635867
0.14315598 0.07456769 -0.00783135 0.093854666 -0.09769416 0.08535963 -0.05936385 -0.12769729
-0.030671686 0.11043756 0.063215196 -0.06375704 -0.09106365 -0.10012575 0.12830038 -0.10337174
0.015863687 0.086759016 -0.101004764 0.114645615 -0.14767163 0.0030659586 -0.058943987 0.042672276
-0.04787536 0.080024585 0.0986297 0.051892027 -0.0068737417 -0.13331708 0.033787474 -0.039253727
-0.05719632 0.06987019 -0.14591545 -0.08426563 0.10278691 0.007562101 -0.14020155 0.14669992
0.013829321 -0.13417846 0.13251488 -0.0041315556 0.049689576 -0.03661427 0.0051634014 0.06451781
0.12445249 -0.06457395 -0.04930588 0.009593636 0.1523955 0.13445021 0.10213481 -0.06228137

gcn.attention.in_proj_bias f4 [192]
00000000: 0000 0000 0000 0000 0000 0000 0000 0000
00000010: 0000 0000 0000 0000 0000 0000 0000 0000
00000020: 0000 0000 0000 0000 0000 0000 0000 0000
00000030: 0000 0000 0000 0000 0000 0000 0000 0000
00000040: 0000 0000 0000 0000 0000 0000 0000 0000
00000050: 0000 0000 0000 0000 0000 0000 0000 0000
00000060: 0000 0000 0000 0000 0000 0000 0000 0000
00000070: 0000 0000 0000 0000 0000 0000 0000 0000
00000080: 0000 0000 0000 0000 0000 0000 0000 0000
00000090: 0000 0000 0000 0000 0000 0000 0000 0000
000000a0: 0000 0000 0000 0000 0000 0000 0000 0000
000000b0: 0000 0000 0000 0000 0000 0000 0000 0000
000000c0: 0000 0000 0000 0000 0000 0000 0000 0000
000000d0: 0000 0000 0000 0000 0000 0000 0000 0000
000000e0: 0000 0000 0000 0000 0000 0000 0000 0000
000000f0: 0000 0000 0000 0000 0000 0000 0000 0000
00000100: 0000 0000 0000 0000 0000 0000 0000 0000
00000110: 0000 0000 0000 0000 0000 0000 0000 0000
00000120: 0000 0000 0000 0000 0000 0000 0000 0000
00000130: 0000 0000 0000 0000 0000 0000 0000 0000
00000140: 0000 0000 0000 0000 0000 0000 0000 0000
00000150: 0000 0000 0000 0000 0000 0000 0000 0000
00000160: 0000 0000 0000 0000 0000 0000 0000 0000
00000170: 0000 0000 0000 0000 0000 0000 0000 0000
00000180: 0000 0000 0000 0000 0000 0000 0000 0000
00000190: 0000 0000 0000 0000 0000 0000 0000 0000
000001a0: 0000 0000 0000 0000 0000 0000 0000 0000
000001b0: 0000 0000 0000 0000 0000 0000 0000 0000
000001c0: 0000 0000 0000 0000 0000 0000 0000 0000
000001d0: 0000 0000 0000 0000 0000 0000 0000 0000
000001e0: 0000 0000 0000 0000 0000 0000 0000 0000
000001f0: 0000 0000 0000 0000 0000 0000 0000 0000
00000200: 0000 0000 0000 0000 0000 0000 0000 0000
00000210: 0000 0000 0000 0000 0000 0000 0000 0000
00000220: 0000 0000 0000 0000 0000 0000 0000 0000
00000230: 0000 0000 0000 0000 0000 0000 0000 0000
00000240: 0000 0000 0000 0000 0000 0000 0000 0000
00000250: 0000 0000 0000 0000 0000 0000 0000 0000
00000260: 0000 0000 0000 0000 0000 0000 0000 0000
00000270: 0000 0000 0000 0000 0000 0000 0000 0000
00000280: 0000 0000 0000 0000 0000 0000 0000 0000
00000290: 0000 0000 0000 0000 0000 0000 0000 0000
000002a0: 0000 0000 0000 0000 0000 0000 0000 0000
000002b0: 0000 0000 0000 0000 0000 0000 0000 0000
000002c0: 0000 0000 0000 0000 0000 0000 0000 0000
000002d0: 0000 0000 0000 0000 0000 0000 0000 0000
000002e0: 0000 0000 0000 0000 0000 0000 0000 0000
000002f0: 0000 0000 0000 0000 0000 0000 0000 0000
0.0 0.0 0.0 0.0 0.0 0.0 0.0 0.0
0.0 0.0 0.0 0.0 0.0 0.0 0.0 0.0
0.0 0.0 0.0 0.0 0.0 0.0 0.0 0.0
0.0 0.0 0.0 0.0 0.0 0.0 0.0 0.0
0.0 0.0 0.0 0.0 0.0 0.0 0.0 0.0
0.0 0.0 0.0 0.0 0.0 0.0 0.0 0.0
0.0 0.0 0.0 0.0 0.0 0.0 0.0 0.0
0.0 0.0 0.0 0.0 0.0 0.0 0.0 0.0
0.0 0.0 0.0 0.0 0.0 0.0 0.0 0.0
0.0 0.0 0.0 0.0 0.0 0.0 0.0 0.0
0.0 0.0 0.0 0.0 0.0 0.0 0.0 0.0
0.0 0.0 0.0 0.0 0.0 0.0 0.0 0.0
0.0 0.0 0.0 0.0 0.0 0.0 0.0 0.0
0.0 0.0 0.0 0.0 0.0 0.0 0.0 0.0
0.0 0.0 0.0 0.0 0.0 0.0 0.0 0.0
0.0 0.0 0.0 0.0 0.0 0.0 0.0 0.0
0.0 0.0 0.0 0.0 0.0 0.0 0.0 0.0
0.0 0.0 0.0 0.0 0.0 0.0 0.0 0.0
0.0 0.0 0.0 0.0 0.0 0.0 0.0 0.0
0.0 0.0 0.0 0.0 0.0 0.0 0.0 0.0
0.0 0.0 0.0 0.0 0.0 0.0 0.0 0.0
0.0 0.0 0.0 0.0 0.0 0.0 0.0 0.0
0.0 0.0 0.0 0.0 0.0 0.0 0.0 0.0
0.0 0.0 0.0 0.0 0.0 0.0 0.0 0.0
