project/model.pth (torch, 638607 bytes, 198 tensors)

gcn.input_proj.weight f4 [64, 36]
00000000: e249 0fbe 06d3 26bc 62a9 dabd f46c ce3d
00000010: 7ecf 8b3c 6c54 c53d 1a37 54bd 546a 09bd
00000020: 4e80 743c 05d1 b53d 2425 a2bd 6b9d e7bd
00000030: 2764 18be b1f2 53bc 4fb5 5b3d 2533 d73d
00000040: 5bbd a53d 6a6f 91bd 716a c73d a905 823d
00000050: 7fed 16bc 1332 23bc 2b11 c5bd e3ef 763d
00000060: dd9d ab3c 6292 153c 176d b83a 52bb 093e
00000070: 786a 9e3d 0c04 163e 02c8 023e 6d2d c8bc
00000080: 624b 15be d17f ae3d a731 223e b7e9 91bd
00000090: 04ba cabd 9b37 043e 333a a0bb 6bb5 10bd
000000a0: 5de9 31be 5330 0ebe 2045 21bd fe2d b8bd
000000b0: f2ed b6bd 3572 c8bd 5092 09be 17fc 923c
000000c0: 2cf8 ffbd 7c3b e7bd a3ec 9a3c 7ece cc3c
000000d0: 7abe 283e 225c e73d da2e 3ebd a833 e23d
000000e0: 5f62 243e 7ac0 e8bd a2b5 0f3e e2bd dc3c
000000f0: 10f2 79bc 5686 243e a079 e9bc 51a1 09be
00000100: 2da6 29bd b924 433d 9a7e b9bd e50b 153d
00000110: 43d8 0dbe 20a9 79bc a14b 1bbd 8174 d63d
00000120: 418e 98bc 4cf3 f9bd 0f79 f53d b493 1bbd
00000130: d87c 46be 8cac 94bc 9d2f 973d 3bd9 813d
00000140: 08d8 87bd cc0e 733d 2657 06be 983c 11be
00000150: a855 03bd 2e0e eabd ccee 92bd 83e5 0f3e
00000160: 80fc 57bd b13d 403d bf7c 7f3d 3a89 c2bd
00000170: 690e fe3d 4a9a 48be ae95 f03b 6d92 99bc
00000180: 4083 073e 3240 09be 9363 d1bd 7075 4d3d
00000190: 748f a8bc 84d4 f6bd 52ef 1dbe b85e 383e
000001a0: aa90 a53d 2715 1a3e 01d9 a03d d8a4 583d
000001b0: e679 a8bd 9e7d 7b3d 40a0 debc 7800 4b3d
000001c0: 52fa f5bd f26a 53bd 7fac 653d 11c4 be3d
000001d0: 5bb9 fe3d 0508 e73d 7667 353e 1b5c d33d
000001e0: 48b3 a1bd e1dc c0bd bc7a 14bd 4229 b9bd
000001f0: 72cc 99bd 60b0 98bc bbca 043e 1d3b 02bd
00000200: 42f1 f13d f852 9dbc b359 f5bc cfe7 d43d
00000210: 328a 803d bd2e 08be e19e b03c 618d 32be
00000220: dbfb 183e 4cf9 e4bd d9fc f63d 53c6 24be
00000230: 75d7 233d 9729 cdbc 1827 4ebd b8b8 013e
00000240: 7d04 d93d 6c03 6f3d 59de d5bd 4297 febd
00000250: 54d8 cdbd dfa0 2e3c 5567 c9bd 8561 39be
00000260: 89b6 0e3e 2510 aabd 9d24 503d 0313 b0bd
00000270: 6d42 ffbd 8982 b2bd 118d 053e 4982 1abc
00000280: f88e 42be f552 17bd 4f85 ddbb 0fc8 513d
00000290: 5708 fa3d e870 003e 1c87 00be d699 dbbd
000002a0: 29d3 1ebe ef8d 0fbd cee1 c1bd ab1e 9d3d
000002b0: dc62 803c f3aa a6bc 9f51 debd 9e19 dbbd
000002c0: e806 a2bd b674 db3d 02bf 843d 0d1e 02be
000002d0: ec78 a63c 9d7b 10be f1b2 a3bd 017f f93d
000002e0: d060 a0bd 7913 a9bd b716 783d c38a 233e
000002f0: 74d5 ea3a af7f e9bc 0cac b93b cbed 033e
00000300: 8d07 f93c 7b62 ad3d 54c4 f4bc 8eb6 f63c
00000310: 078e 423d 9534 acbd 8b0c 1bbe aba5 2cbd
00000320: 3760 07be 7ee3 773d 64d4 7ebd 4f5c 0f3e
00000330: 5b40 003e 0a2a ad3d f720 b73c 195d c9bd
00000340: 7ffb b13d 8cf7 edbd ab02 a43b ba04 14bd
00000350: aaa2 cb3d ecaa 003e 46f7 d83c 78fc 093d
00000360: 0523 a4bc aef0 8c3a ffcb 743c 9988 b2ba
00000370: edf3 19be d69c 63bd f2d2 a93d 61ce 98bd
00000380: 1de1 133e 1c10 51bd ceb6 093e 696b 593d
00000390: 3b43 8cbd 04ca eb3d d324 18be 6094 313e
000003a0: d479 f43c 8f88 243e 837c d73d aebf 253e
000003b0: 2155 32bd d098 d53d ad66 843c 9b00 c53b
000003c0: d7da 22bd b49d a7bc 7a85 653d 7e73 9f3d
000003d0: bfc1 f7bd 9175 2d3e 6e95 023d a748 eebd
000003e0: 6484 d6bd 961f f73d 7c6c 073c 963e 4f3d
000003f0: a2bd ebbd 0ec8 7a3c f1c6 853d 14d5 28bd
-0.13993028 -0.010182148 -0.106768385 0.10079375 0.017066713 0.09635243 -0.05181036 -0.033548668
0.014923168 0.08877758 -0.0791724 -0.11309322 -0.14881955 -0.01293628 0.053639706 0.10507802
0.08092757 -0.07101329 0.09737099 0.06348736 -0.009211897 -0.009960669 -0.09622415 0.060287368
0.020949299 0.009129139 0.0014070597 0.13450363 0.07735151 0.14649981 0.1277161 -0.024435723
-0.14579538 0.08520473 0.15839253 -0.07124656 -0.09898761 0.12911837 -0.0048897504 -0.035329264
-0.17374177 -0.13885622 -0.039372563 -0.08993147 -0.08932103 -0.09787408 -0.1343472 0.017942471
-0.12498507 -0.112906426 0.018911665 0.025000807 0.16478911 0.1129687 -0.0464314 0.11045009
0.1605315 -0.11364837 0.14034131 0.026946012 -0.015255466 0.1606687 -0.028500378 -0.13440444
-0.041418243 0.047642443 -0.090573505 0.036388297 -0.13852029 -0.015238076 -0.037913922 0.1047144
-0.01862252 -0.12204608 0.11985981 -0.037982658 -0.19383562 -0.018148683 0.073821284 0.063402615
-0.066330016 0.059340283 -0.13119182 -0.14183271 -0.03206411 -0.11428486 -0.07174453 0.14052396
-0.052731037 0.046933834 0.062374827 -0.0949883 0.12405092 -0.19590107 0.007342062 -0.018746579
0.13233662 -0.13403395 -0.102240704 0.050160825 -0.020576216 -0.12052253 -0.15423325 0.18004882
0.08084233 0.15047131 0.0785389 0.052891582 -0.08226375 0.061399095 -0.027176023 0.049560994
-0.120106354 -0.051615663 0.05607271 0.093147404 0.124376975 0.112808265 0.17715248 0.10320302
-0.07895523 -0.09417129 -0.03624986 -0.090410724 -0.07509698 -0.01863879 0.1296796 -0.031794656
0.118135944 -0.019204602 -0.029949998 0.103957765 0.06276359 -0.13299079 0.021560134 -0.17436744
0.14939825 -0.11180362 0.120599456 -0.1609128 0.040000398 -0.025044246 -0.05033025 0.12668121
0.10596559 0.058352873 -0.104428 -0.12431194 -0.10051027 0.010658472 -0.09834162 -0.18103607
0.13936819 -0.083038606 0.050816167 -0.08597376 -0.124638416 -0.08716304 0.13042094 -0.009430476
-0.18999851 -0.03694435 -0.0067602764 0.05121618 0.12208622 0.1254307 -0.1255154 -0.10722701
-0.15510239 -0.035047468 -0.09466897 0.07671865 0.01567214 -0.020345187 -0.10855412 -0.106982455
-0.079114735 0.1071562 0.06481744 -0.12706776 0.020321332 -0.14109655 -0.07993115 0.12182427
-0.078309655 -0.08255667 0.060568538 0.15970902 0.0017916397 -0.028503267 0.0056662615 0.1288368
0.030399108 0.08466049 -0.029878773 0.030116346 0.04749873 -0.08408467 -0.15141504 -0.04215018
-0.13220297 0.060519688 -0.06221427 0.14000057 0.1252455 0.08455284 0.022354586 -0.0983221
0.08690547 -0.116194814 0.005005201 -0.03613732 0.09943135 0.12565202 0.026485097 0.03368804
-0.02003623 0.001075288 0.014941215 -0.0013621032 -0.15034457 -0.055569492 0.08292188 -0.07461239
0.14441343 -0.051040754 0.1344864 0.05308095 -0.06848761 0.11513141 -0.14857797 0.17341757
0.029843248 0.16067718 0.105217956 0.16186401 -0.043538217 0.10429537 0.01616224 0.006012035
-0.039759483 -0.02046094 0.056035496 0.077857 -0.12097501 0.1693938 0.03188079 -0.11634951
-0.1047447 0.120665714 0.008265611 0.050596796 -0.11510779 0.015306486 0.06532086 -0.041218832

gcn.input_proj.bias f4 [64]
00000000: 6e0f 06be 55a7 603b 080d 233d 7868 7bbd
00000010: 0803 153e 1d27 c6bd 6a55 32be b06e 833d
00000020: 9ff2 bd3d dc98 df3c 7a2b 503d 283b a83d
00000030: 4efe 02be 4ab8 3fbd 909d c7bd cf38 4b3c
00000040: 705e 0a3e fb1d 8abc 5ade 0a3e 614e 073d
00000050: 6d2f aabd eb60 033e 9c27 413d adfc dc3c
00000060: 668c 43bd 6a5a 6a3e 06ca 72bd db6e 02bd
00000070: 0b5b 0b3d 4924 9d3d 6fbc 25be 0137 013e
00000080: 8def d23c e4a2 33be 0efe eebd 183e 0f3e
00000090: 62e2 923d a3d3 2ebc ad5f 803d 653d 5e3d
000000a0: 37a6 ba3c 88c1 cebd b342 32bd 5eec 743d
000000b0: 965d b53d e0b1 45bd 3706 183e 451b bfbd
000000c0: a47e 7ebd 7d27 323e 4659 c3bd fd4e 5e3d
000000d0: 27a9 ba3d 4e44 4dbe 018b 0e3e 1ff9 ebbd
000000e0: ccde 15bd ef2e 0cbe aa95 35bb 0b88 d03d
000000f0: eb47 02be de9d 723d e9f4 40be 9c73 babd
-0.13091823 0.0034279425 0.03980735 -0.061378926 0.14551938 -0.09675429 -0.17415395 0.06417596
0.09274792 0.027294569 0.050822712 0.08214408 -0.12792322 -0.04680661 -0.097468495 0.012403681
0.13512588 -0.016859999 0.13561383 0.033033732 -0.08309827 0.1282994 0.047156915 0.026975954
-0.047741316 0.22886053 -0.059274696 -0.031844 0.034022372 0.076729365 -0.16185163 0.12618639
0.025748992 -0.17542607 -0.11669551 0.1398853 0.07172085 -0.010670575 0.06268249 0.05425777
0.022784336 -0.10095507 -0.04352064 0.05979573 0.08855741 -0.048265338 0.14846121 -0.09331373
-0.062132493 0.17397876 -0.09538512 0.054274548 0.091142945 -0.20045587 0.13920213 -0.115221255
-0.03658943 -0.13689779 -0.0027707615 0.10182198 -0.12722747 0.059232585 -0.18843426 -0.09104082

gcn.feature_attention.in_proj_weight f4 [192, 64]
00000000: 3048 b7bd ba43 ce3d fe41 e53d 20e4 d8bc
00000010: 2a81 c23d 545d 383d dc4b 7cbd 2e1d bebd
00000020: 1777 1abe 337f 0dbe e0ad ab3b 744e 1dbd
00000030: 5dd8 a0bd 00ad e4bb b4fe 0d3d ce5d e63d
00000040: 3777 10be 19b6 153e 5ad6 f13d fa87 923d
00000050: d6a9 ef3d da60 f83d 7216 11be 08eb 9ebd
00000060: f4b4 683d cc7b 9f3d c0d8 7fbc 3282 20bd
00000070: b81b d43c 03e1 123e b8d4 00bd 6cff 6e3d
00000080: 0079 383b a40b 833d f610 03bd d852 c1bd
00000090: bb7e 153e 941e c0bd 3fcc 0e3e 94fd b73d
000000a0: 35ef c3bd 8058 6a3d 61a8 11be d7bd 153e
000000b0: 165a 5ebd 20e1 fcbd 26ff b13d 84d6 a53d
000000c0: a4be 42bd 4e97 d33d e3e5 8abd 760d e53d
000000d0: 28d6 c23d 9169 93bd 6a55 43bd f497 933d
000000e0: f066 fcbc a4bd c1bd 2636 30bd b751 0cbe
000000f0: 5076 3d3d dc00 5dbd 0a75 e43d 2e44 18be
00000100: f041 d0bd 0080 5837 0cf4 4c3d d6b8 b33d
00000110: 18e1 fbbc 87ec 04be d8fc f43c fe0f 12be
00000120: 804a 22bc 5105 0abe 6031 bb3c 8367 0d3e
00000130: 9ab3 febd a68e 1abe a8bb 233d d87c 2e3d
00000140: febc db3d c2b6 12bd bcd9 8cbd da64 15be
00000150: 3ee8 e03d b399 083e 6cfc 0fbe b4db e4bd
00000160: b0e3 703d 100b ddbd 923c 05bd 664a 10be
00000170: 9275 b03d 057c 153e a0d1 063d 2e82 02bd
00000180: 007c 7f3a a08b 7abd 78cb a3bd dd32 d5bd
00000190: 77e2 e2bd fd9e 173e 5c71 7dbd 51b0 1a3e
000001a0: b2b4 d0bd 755e a4bd 9011 d1bd 6af0 833d
000001b0: 325c 09be c0c3 00bb e23c b33d 4643 06be
000001c0: 304b d2bc f681 ecbd 9aaf 05bd 409e 283d
000001d0: 208e e4bc b0be 76bc 9ade 01bd be29 983d
000001e0: 0813 c13c 50bb 77bc bcb0 5b3d 47f9 afbd
000001f0: b0bf 7dbc 244d 7b3d 3eec 7abd 40d8 bcbc
00000200: 16f3 11bd 800d 0bbc 781f c23c 78f6 8dbd
00000210: 06db a53d 2850 923d 0060 93b9 a66c e33d
00000220: ce1f c7bd 8ccb 0c3d 5ac4 efbd 20ab 3a3c
00000230: f571 0bbe b295 3fbd 7982 c3bd f6f8 b5bd
00000240: 4679 6bbd a05c a33c 30cd c9bc 48dc e33c
00000250: efd9 08be db48 0bbe 12c8 02be 90c9 8a3d
00000260: 8435 fabc 562a 31bd 66a1 cb3d 5201 f43d
00000270: 6161 09be 15a8 123e f013 a93d a441 393d
00000280: 400b 213b 32b3 cf3d e88e 8dbc e232 abbd
00000290: 30fe cd3c e93d 1abe e065 c0bd 0200 c73d
000002a0: dde9 cfbd 7afd 9bbd da57 fb3d 8e42 d13d
000002b0: e6a7 fcbd 34b1 5f3d 0ca2 2e3d bcb8 77bd
000002c0: ea01 983d a9da 143e a098 9c3d d0bf ffbd
000002d0: 49d7 c0bd 689e 1bbd 0d6f 153e f848 12be
000002e0: 0aed debd deec d13d f8c3 cd3c 0c26 cbbd
000002f0: 29ca 103e aaf6 d13d f86d 8ebd 2c44 b53d
00000300: 4ae8 babd 2eb9 09be f07a 953c 80ca a43b
00000310: 20fe 693c 0761 093e bc63 3ebd 74d4 fdbc
00000320: be9b f5bd e068 ebbd c065 86bc 36e6 40bd
00000330: 2067 1fbc d8d1 1a3d 122a a03d e179 bebd
00000340: 3fcb 073e 58f7 ad3d 7676 d63d f4fe 7bbd
00000350: 0abf cfbd d8ae 34bd e068 0d3d c0ff 773b
00000360: 403c 81bc 82b4 c1bd 6baa 013e 3015 bb3c
00000370: 6d6d adbd 67fc 143e 4c03 d3bd 1bef 073e
00000380: 23f7 0a3e 5fba 003e 901d efbd 6acb 01be
00000390: 60b2 913c e199 94bd 9093 7e3d 9271 3cbd
000003a0: a9b7 15be 78b8 98bc 7710 033e a047 ffbd
000003b0: 7e40 5bbd a0c5 123d f618 dbbd 64ac 0cbe
000003c0: a61e 02bd baa3 8b3d cc81 4f3d d2bf c73d
000003d0: f835 dfbc 0073 703c 16dd 993d fef4 f53d
000003e0: d029 c5bd 00b4 243a 78e0 9cbd 5b12 093e
000003f0: 9001 d1bd 31eb 0abe 6833 a63c e056 3cbd
-0.089493155 0.100715116 0.11194228 -0.026475966 0.09497292 0.04501088 -0.061595783 -0.09282909
-0.15084492 -0.13818054 0.0052392334 -0.038404897 -0.07853768 -0.006978631 0.034666732 0.112483606
-0.14107977 0.14620246 0.118084624 0.07154842 0.117023155 0.12127848 -0.14168718 -0.077596724
0.056813195 0.07787284 -0.015615642 -0.039186664 0.025892124 0.14343648 -0.031452864 0.058349058
0.0028148293 0.06398705 -0.031998597 -0.09439629 0.14599125 -0.09380832 0.13945101 0.08983913
-0.095671095 0.057213306 -0.14224388 0.146232 -0.05428513 -0.12347627 0.08691244 0.08097556
-0.04754509 0.103315935 -0.06782129 0.11184208 0.09513503 -0.071978696 -0.04768888 0.07206717
-0.030810803 -0.09459999 -0.04302039 -0.13703047 0.04625541 -0.053955898 0.11155136 -0.14869758
-0.101688266 1.2904406e-05 0.05003743 0.08775489 -0.030746982 -0.12980853 0.029905722 -0.14263913
-0.0099054575 -0.1347859 0.022850692 0.13809018 -0.124366 -0.15093479 0.039973885 0.04259953
0.10729407 -0.035818823 -0.06877467 -0.14589253 0.10981797 0.13339882 -0.14061135 -0.111747175
0.05881089 -0.10793126 -0.032528467 -0.14090881 0.08616175 0.14598091 0.032914758 -0.03186243
0.00097459555 -0.061168313 -0.07997793 -0.10410092 -0.11078351 0.14806743 -0.061875686 0.15106322
-0.10190715 -0.08025829 -0.10208428 0.0644234 -0.13414076 -0.0019647926 0.08751847 -0.131116
-0.025670618 -0.115482256 -0.03263817 0.041166544 -0.027899802 -0.015060112 -0.03170643 0.07429837
0.023568645 -0.015120342 0.053635344 -0.08592468 -0.015487596 0.061352864 -0.061260454 -0.023052335
-0.035632215 -0.008487105 0.023696646 -0.06931776 0.08098416 0.07144195 -0.0002810955 0.111047074
-0.09722863 0.034373805 -0.11707373 0.011393338 -0.1361769 -0.04677362 -0.0954637 -0.08885376
-0.057488702 0.019941628 -0.024633974 0.027815 -0.13364385 -0.13602011 -0.12771633 0.06776726
-0.030543096 -0.043253265 0.09942894 0.11914314 -0.13416053 0.1432193 0.08255756 0.045228615
0.0024573356 0.10141601 -0.017280057 -0.083593145 0.02514562 -0.1506268 -0.09394431 0.09716798
-0.10152028 -0.07616706 0.12272616 0.102177724 -0.123367116 0.054612353 0.04263501 -0.06047891
0.0742224 0.14536537 0.076462984 -0.12487757 -0.094160624 -0.037992865 0.14593144 -0.14285648
-0.10885055 0.10250257 0.02511786 -0.09919366 0.14139618 0.102521256 -0.069545686 0.088508934
-0.09126337 -0.13449547 0.018247098 0.0050290227 0.0142817795 0.13415919 -0.046481833 -0.030985095
-0.11992596 -0.11494613 -0.01640594 -0.047094546 -0.009729177 0.03779778 0.07820524 -0.0930059
0.13261126 0.08494443 0.104718134 -0.06152244 -0.1014386 -0.044112056 0.034523845 0.0037841648
-0.0157758 -0.09458257 0.12662666 0.022837251 -0.08468137 0.14549409 -0.10303363 0.13274805
0.13570838 0.12571095 -0.116755605 -0.12675253 0.017785251 -0.072559126 0.062152445 -0.046006747
-0.14620842 -0.018642649 0.1279925 -0.12464833 -0.0535283 0.035833 -0.1069812 -0.13737637
-0.03176751 0.06818338 0.050660893 0.09753384 -0.027247414 0.014675856 0.07512872 0.12009619
-0.09627116 0.00062829256 -0.076600015 0.13385908 -0.10205376 -0.13566281 0.020288184 -0.045981288

gcn.feature_attention.in_proj_bias f4 [192]
00000000: 0000 0000 0000 0000 0000 0000 0000 0000
00000010: 0000 0000 0000 0000 0000 0000 0000 0000
00000020: 0000 0000 0000 0000 0000 0000 0000 0000
00000030: 0000 0000 0000 0000 0000 0000 0000 0000
00000040: 0000 0000 0000 0000 0000 0000 0000 0000
00000050: 0000 0000 0000 0000 0000 0000 0000 0000
00000060: 0000 0000 0000 0000 0000 0000 0000 0000
00000070: 0000 0000 0000 0000 0000 0000 0000 0000
00000080: 0000 0000 0000 0000 0000 0000 0000 0000
00000090: 0000 0000 0000 0000 0000 0000 0000 0000
000000a0: 0000 0000 0000 0000 0000 0000 0000 0000
000000b0: 0000 0000 0000 0000 0000 0000 0000 0000
000000c0: 0000 0000 0000 0000 0000 0000 0000 0000
000000d0: 0000 0000 0000 0000 0000 0000 0000 0000
000000e0: 0000 0000 0000 0000 0000 0000 0000 0000
000000f0: 0000 0000 0000 0000 0000 0000 0000 0000
00000100: 0000 0000 0000 0000 0000 0000 0000 0000
00000110: 0000 0000 0000 0000 0000 0000 0000 0000
00000120: 0000 0000 0000 0000 0000 0000 0000 0000
00000130: 0000 0000 0000 0000 0000 0000 0000 0000
00000140: 0000 0000 0000 0000 0000 0000 0000 0000
00000150: 0000 0000 0000 0000 0000 0000 0000 0000
00000160: 0000 0000 0000 0000 0000 0000 0000 0000
00000170: 0000 0000 0000 0000 0000 0000 0000 0000
00000180: 0000 0000 0000 0000 0000 0000 0000 0000
00000190: 0000 0000 0000 0000 0000 0000 0000 0000
000001a0: 0000 0000 0000 0000 0000 0000 0000 0000
000001b0: 0000 0000 0000 0000 0000 0000 0000 0000
000001c0: 0000 0000 0000 0000 0000 0000 0000 0000
000001d0: 0000 0000 0000 0000 0000 0000 0000 0000
000001e0: 0000 0000 0000 0000 0000 0000 0000 0000
000001f0: 0000 0000 0000 0000 0000 0000 0000 0000
00000200: 0000 0000 0000 0000 0000 0000 0000 0000
00000210: 0000 0000 0000 0000 0000 0000 0000 0000
00000220: 0000 0000 0000 0000 0000 0000 0000 0000
00000230: 0000 0000 0000 0000 0000 0000 0000 0000
00000240: 0000 0000 0000 0000 0000 0000 0000 0000
00000250: 0000 0000 0000 0000 0000 0000 0000 0000
00000260: 0000 0000 0000 0000 0000 0000 0000 0000
00000270: 0000 0000 0000 0000 0000 0000 0000 0000
00000280: 0000 0000 0000 0000 0000 0000 0000 0000
00000290: 0000 0000 0000 0000 0000 0000 0000 0000
000002a0: 0000 0000 0000 0000 0000 0000 0000 0000
000002b0: 0000 0000 0000 0000 0000 0000 0000 0000
000002c0: 0000 0000 0000 0000 0000 0000 0000 0000
000002d0: 0000 0000 0000 0000 0000 0000 0000 0000
000002e0: 0000 0000 0000 0000 0000 0000 0000 0000
000002f0: 0000 0000 0000 0000 0000 0000 0000 0000
0.0 0.0 0.0 0.0 0.0 0.0 0.0 0.0
0.0 0.0 0.0 0.0 0.0 0.0 0.0 0.0
0.0 0.0 0.0 0.0 0.0 0.0 0.0 0.0
0.0 0.0 0.0 0.0 0.0 0.0 0.0 0.0
0.0 0.0 0.0 0.0 0.0 0.0 0.0 0.0
0.0 0.0 0.0 0.0 0.0 0.0 0.0 0.0
0.0 0.0 0.0 0.0 0.0 0.0 0.0 0.0
0.0 0.0 0.0 0.0 0.0 0.0 0.0 0.0
0.0 0.0 0.0 0.0 0.0 0.0 0.0 0.0
0.0 0.0 0.0 0.0 0.0 0.0 0.0 0.0
0.0 0.0 0.0 0.0 0.0 0.0 0.0 0.0
0.0 0.0 0.0 0.0 0.0 0.0 0.0 0.0
0.0 0.0 0.0 0.0 0.0 0.0 0.0 0.0
0.0 0.0 0.0 0.0 0.0 0.0 0.0 0.0
0.0 0.0 0.0 0.0 0.0 0.0 0.0 0.0
0.0 0.0 0.0 0.0 0.0 0.0 0.0 0.0
0.0 0.0 0.0 0.0 0.0 0.0 0.0 0.0
0.0 0.0 0.0 0.0 0.0 0.0 0.0 0.0
0.0 0.0 0.0 0.0 0.0 0.0 0.0 0.0
0.0 0.0 0.0 0.0 0.0 0.0 0.0 0.0
0.0 0.0 0.0 0.0 0.0 0.0 0.0 0.0
0.0 0.0 0.0 0.0 0.0 0.0 0.0 0.0
0.0 0.0 0.0 0.0 0.0 0.0 0.0 0.0
0.0 0.0 0.0 0.0 0.0 0.0 0.0 0.0

gcn.feature_attention.out_proj.weight f4 [64, 64]
00000000: 6082 4b3d bc71 093d a08b 303c 8a37 a23d
00000010: 30f7 943d d82b ff3d ea8e 933d d0e7 8ebd
00000020: 4a0b afbd 8226 f53d 481e d63c f82b debc
00000030: 103f 63bc 58f3 39bd 58d7 2fbd 3886 ff3c
00000040: 283a 2ebd 3697 cabd a8bd 013d 38ef 37bd
00000050: 7879 92bc f45c e53d 92cf fc3d f416 68bd
00000060: 1875 d4bc 60f9 f33b f8eb 4ebd 903f 053c
00000070: 5cc1 e7bd de0d 933d a606 a33d 6849 e9bc
00000080: 00dc 6439 8e19 c1bd 5c90 0cbd 4e31 b73d
00000090: 086f 96bc de61 f5bd 804e 963c d86a c13c
000000a0: 584a e4bd a8b6 b93c 94b2 423d 30ce f63c
000000b0: 4090 6ebb f4cd 02bd 2857 d83c a6bb d8bd
000000c0: 0047 d5bb 3a23 8c3d d01f 783d b65a 8fbd
000000d0: 5005 83bc b806 253d a040 c7bc 6af8 fabd
000000e0: b8b6 f33d da83 d6bd 0064 b63b 3871 ffbd
000000f0: 8ca2 bd3d 98e6 a8bc 5255 aa3d 98ea ffbd
00000100: d6ff e13d 0887 08bd 983e 1dbd 9c02 08bd
00000110: 2c1e a4bd ee72 a8bd 70bf 3abd 10a5 0ebc
00000120: a065 323d 40ca 15bc c4d1 e03d 0008 76b9
00000130: 2026 953b 309e 173c 0008 17bc 38b8 b3bd
00000140: 043f f03d 14df 793d 801b 7dbb 38ab a33d
00000150: 06c1 a3bd 6e6d ef3d 9054 eebc e2dc f1bd
00000160: 18ba aabd e013 c33d 3c08 a63d 363e d33d
00000170: ae3e a33d 4053 c1bd 1c6f 69bd 7c88 013d
00000180: 4c3e debd 6481 fb3d 5801 dabd e02a 98bd
00000190: 289c b5bd 4015 e0bc f090 e13c 6090 babc
000001a0: c002 9ebc fe36 983d 409a bebd 6c00 a13d
000001b0: 004d d3bc 8243 b43d 7acd 8fbd 6aa3 c6bd
000001c0: 4eb4 bd3d 2676 afbd 1451 c63d 80de 81bc
000001d0: c442 b5bd 2433 adbd e025 b83b cca2 fbbd
000001e0: acf7 3a3d 2438 24bd 605f 2e3c f8bb afbd
000001f0: 6a96 ec3d c8b3 84bc 184f a1bd e6ab e83d
00000200: d07f 5fbd b275 bdbd 2404 38bd a099 923b
00000210: 9277 a9bd 38e7 8dbc c8ad 273d c6d5 9ebd
00000220: 6073 84bd 10b9 913d 5cb1 b2bd 7026 16bc
00000230: 1850 393d b011 913d e023 37bc 7ce6 89bd
00000240: 7002 7d3c 1897 ebbd ccad 8ebd e698 a73d
00000250: fca7 a63d 203b d9bd 809d a83b acbb 23bd
00000260: fc3d 89bd 0ad4 eebd 7a51 8fbd 4c99 ad3d
00000270: 60c0 f9bb 1e35 ac3d 6eca a2bd 0a95 8ebd
00000280: 0eb3 bdbd e8f6 973d c08b 663b b89d 4dbd
00000290: 98cc 9c3c 78fe 093d 8644 e93d e06f 37bd
000002a0: 58f0 54bd 1e71 dd3d e450 36bd f89b fc3c
000002b0: 7261 82bd 6027 96bc 1806 ca3c 302d 9f3c
000002c0: 88a4 12bd 4888 f8bc 3063 aabd a2c0 a9bd
000002d0: 4efa 963d e61d 8ebd 4a87 d6bd 1c63 d73d
000002e0: 748e 56bd 1890 2f3d 1c53 683d 00bc 9abc
000002f0: 3a7c 9d3d 0cd2 69bd 3afd a2bd ac9e 3bbd
00000300: ec73 1c3d f817 febc f044 82bc 50e9 d5bd
00000310: 800a fc3b e8bc 4a3d 4611 adbd 84c0 e1bd
00000320: 8055 713d 583b 943c 8aa0 f73d 8858 92bd
00000330: 4c12 cf3d b08a 613c 2071 c6bb 9c0a abbd
00000340: e887 643d 50b9 f9bc c02e 0c3d b0af f63c
00000350: e29e 983d 0451 b7bd 9a2f f3bd 1479 f63d
00000360: 40ce 0abb e018 eb3c 1434 783d 00ad c53d
00000370: 76d7 a83d 566b 94bd 9278 ecbd 4865 8abd
00000380: 3c9e 7b3d d662 cd3d 50b1 523c 50b4 423d
00000390: 8018 79bd 4469 2c3d ca79 8abd 4c54 60bd
000003a0: d01d 763c c003 03bb 7475 393d f04d 903d
000003b0: ecf1 9e3d 2039 06bd 2ce6 8fbd 586a 103d
000003c0: a049 85bb 1cd1 a6bd d027 2b3c c058 173d
000003d0: 1655 993d 9064 083d b809 97bc 008e 26bd
000003e0: 92be fcbd 9003 04bc d0cd c33c a85d e6bc
000003f0: 5c69 093d 404d a9bb 68bf d83c 4079 bf3b
0.049684882 0.03355573 0.010775477 0.079207495 0.0727371 0.124595344 0.07204993 -0.069778085
-0.08547075 0.119702354 0.026137486 -0.027120575 -0.013870016 -0.045398086 -0.042929977 0.03119193
-0.04253593 -0.098921224 0.03167501 -0.04490587 -0.017880186 0.1119937 0.123442784 -0.056662515
-0.02593474 0.0074454993 -0.050518006 0.00813283 -0.11316177 0.07180379 0.079602525 -0.028477386
0.00021825731 -0.09428702 -0.03431736 0.08944951 -0.01836349 -0.11981557 0.018347979 0.023610517
-0.111469924 0.022670105 0.047533587 0.030127615 -0.0036401898 -0.031934693 0.026408747 -0.10582666
-0.006508708 0.068426564 0.060577214 -0.069997236 -0.015993744 0.04028961 -0.024322808 -0.122544125
0.11900085 -0.104743674 0.00556612 -0.12472767 0.09259519 -0.020617768 0.08317055 -0.12495917
0.11035125 -0.0333319 -0.038389772 -0.033205613 -0.08013567 -0.08225046 -0.045592725 -0.008706346
0.04355395 -0.009142458 0.109775096 -0.00023463368 0.004551664 0.009254023 -0.009218216 -0.08775371
0.11730769 0.06100376 -0.0038621128 0.07991642 -0.07995801 0.11690794 -0.029093057 -0.11809708
-0.08336276 0.09525275 0.08107039 0.103146 0.079709396 -0.09439707 -0.056990728 0.031624302
-0.10851726 0.12280539 -0.106447875 -0.07430053 -0.08867675 -0.027353883 0.027534932 -0.022773921
-0.01928842 0.07432364 -0.093067646 0.078614086 -0.025793552 0.088019386 -0.070216134 -0.096991375
0.09262906 -0.08567457 0.09683433 -0.015853167 -0.08850625 -0.0845702 0.0056197494 -0.122869104
0.045646355 -0.040092602 0.010642856 -0.08580774 0.11552127 -0.016199008 -0.07876414 0.11360912
-0.05456525 -0.09250964 -0.044925824 0.00447388 -0.08274759 -0.017322168 0.040937215 -0.07755618
-0.064673185 0.07115376 -0.08725235 -0.009164438 0.0452424 0.07083452 -0.011177987 -0.067334145
0.015442476 -0.11503428 -0.06966743 0.0818346 0.08137509 -0.1060698 0.0051457286 -0.0399739
-0.06701276 -0.11661537 -0.06997962 0.08476505 -0.00762181 0.08408569 -0.07948767 -0.06962021
-0.092626676 0.074201405 0.0035178512 -0.05019924 0.019140527 0.033689946 0.11390023 -0.044784427
-0.051987022 0.10812591 -0.044510737 0.03083609 -0.063662425 -0.018329322 0.024661109 0.019430727
-0.03580144 -0.030338421 -0.083197 -0.08288695 0.073719606 -0.069392964 -0.10475023 0.105169505
-0.052381948 0.042862028 0.056719884 -0.018888474 0.0768971 -0.057085082 -0.079584554 -0.04580562
0.03819649 -0.031017289 -0.015902013 -0.104448915 0.0076916814 0.04949656 -0.0845056 -0.110230476
0.05891943 0.018094704 0.12091167 -0.07145792 0.10110912 0.013765976 -0.006055966 -0.08351633
0.055793673 -0.030483872 0.03422427 0.030113071 0.074521795 -0.089509994 -0.11874314 0.120348126
-0.0021180063 0.028698385 0.06059654 0.09652138 0.08244221 -0.07247035 -0.115464345 -0.06757599
0.0614302 0.10028617 0.012859657 0.04753524 -0.06081438 0.042092577 -0.06761511 -0.05476789
0.015021756 -0.001999125 0.045278028 0.070461154 0.07760987 -0.032769322 -0.07026324 0.035257667
-0.0040676147 -0.08145353 0.010446504 0.036949873 0.07486932 0.03329903 -0.018437251 -0.040662766
-0.12341036 -0.00805749 0.02390185 -0.02812083 0.033547744 -0.0051666796 0.026458457 0.0058433115

gcn.feature_attention.out_proj.bias f4 [64]
00000000: 0000 0000 0000 0000 0000 0000 0000 0000
00000010: 0000 0000 0000 0000 0000 0000 0000 0000
00000020: 0000 0000 0000 0000 0000 0000 0000 0000
00000030: 0000 0000 0000 0000 0000 0000 0000 0000
00000040: 0000 0000 0000 0000 0000 0000 0000 0000
00000050: 0000 0000 0000 0000 0000 0000 0000 0000
00000060: 0000 0000 0000 0000 0000 0000 0000 0000
00000070: 0000 0000 0000 0000 0000 0000 0000 0000
00000080: 0000 0000 0000 0000 0000 0000 0000 0000
00000090: 0000 0000 0000 0000 0000 0000 0000 0000
000000a0: 0000 0000 0000 0000 0000 0000 0000 0000
000000b0: 0000 0000 0000 0000 0000 0000 0000 0000
000000c0: 0000 0000 0000 0000 0000 0000 0000 0000
000000d0: 0000 0000 0000 0000 0000 0000 0000 0000
000000e0: 0000 0000 0000 0000 0000 0000 0000 0000
000000f0: 0000 0000 0000 0000 0000 0000 0000 0000
0.0 0.0 0.0 0.0 0.0 0.0 0.0 0.0
0.0 0.0 0.0 0.0 0.0 0.0 0.0 0.0
0.0 0.0 0.0 0.0 0.0 0.0 0.0 0.0
0.0 0.0 0.0 0.0 0.0 0.0 0.0 0.0
0.0 0.0 0.0 0.0 0.0 0.0 0.0 0.0
0.0 0.0 0.0 0.0 0.0 0.0 0.0 0.0
0.0 0.0 0.0 0.0 0.0 0.0 0.0 0.0
0.0 0.0 0.0 0.0 0.0 0.0 0.0 0.0

gcn.convs.0.bias f4 [64]
00000000: 467b edba bd4b d9ba 6069 a43a 4b05 7fba
00000010: 398b a5ba 50f6 963a d420 cab9 feb1 083b
00000020: 30cd 433b 3589 a6ba e0fd 873b 1af1 10ba
00000030: ac14 193a 78fd 423a 6524 b13a be83 de3b
00000040: 3cf4 253b 89c8 88bb 380d 7d3a fc7e f63a
00000050: e491 47ba ed10 80b9 a711 2fbb fecc 7fba
00000060: c0fd db3a c0ea 6fba 1a31 3dbb fa7e 21ba
00000070: e68a 3b3b 7dc3 c73a 4ddb 1e3a 7f86 353b
00000080: e26c 9b39 d8aa 38bb 32f6 b93a 6fad 88b7
00000090: 1c48 72ba 6e03 323b 81af ce39 2263 aeba
000000a0: f811 2a3b 7574 22ba 3c9b 43bb 0c57 c73a
000000b0: 5e53 49ba 5ba6 143b 66fd 8f3a 17e2 8e3a
000000c0: 1e5a e9ba a99f 53bb 17da e7ba 2edb 19ba
000000d0: e737 9b3a d01e 82ba d900 4bba 1297 31bb
000000e0: d18d 7a3a 373b fb39 f9c9 7ab9 f90b c83a
000000f0: 01fa 91ba e7bd aaba e5fe ce38 970f 413a
-0.0018118403 -0.0016578358 0.0012543611 -0.0009728267 -0.0012629993 0.0011517499 -0.000385529 0.0020858045
0.002987694 -0.0012705686 0.0041501373 -0.0005529091 0.0005839567 0.00074382825 0.0013514875 0.0067906072
0.0025322577 -0.0041742963 0.0009653154 0.0018806155 -0.0007612987 -0.00024426673 -0.0026713402 -0.0009758024
0.0016783997 -0.0009152107 -0.0028868378 -0.00061605836 0.0028616725 0.0015240755 0.00060599 0.0027698574
0.00029645028 -0.0028178003 0.0014187752 -1.6293225e-05 -0.00092423125 0.0027162689 0.00039422142 -0.001330469
0.0025950652 -0.0006197163 -0.0029847166 0.0015208437 -0.0007679964 0.0022682163 0.0010985553 0.001090112
-0.0017803346 -0.003229121 -0.0017688897 -0.0005869147 0.0011842222 -0.0009927396 -0.0007743962 -0.0027098102
0.00095578755 0.0004791857 -0.00023917099 0.0015262357 -0.0011137129 -0.0013026566 9.870323e-05 0.0007364689

gcn.convs.0.lin.weight f4 [64, 64]
00000000: 7c6e 3fbe 8490 313e cb66 24bd 510e d6bd
00000010: 8605 b93d a176 23be 1d33 273e 21e8 06be
00000020: 18fd 08be 3866 1b3c 0b0a d63d f6e3 7a3c
00000030: a03b 15be 3d31 f43d 8b5b 10bd ccec f4bd
00000040: 4fa8 073e 20a1 123e d871 6abd 1da7 243d
00000050: aa18 6a3e 3f39 153d 30d9 d73d a625 2ebe
00000060: 34d7 493c a88f 4abe cf8f 663c ff97 d03d
00000070: f740 c13a 3a95 413e d7ab 02bd 4142 05be
00000080: 5c62 babd c63a 363e 3254 653d 0dda 74be
00000090: 8e52 1cbe 48e4 08be 7efd 003d c2cc 713d
000000a0: 9a8f b3bd f280 43be 5360 c73d f743 18be
000000b0: ef19 e43d 1566 1a3e 5b7c c33d 46ef 50be
000000c0: 639b 33be cef4 8bbd 5789 263e 337d 263e
000000d0: af8c 1bbe 2584 883d 1dc1 22be 94b1 3f3e
000000e0: fb53 e7bd 6b52 0e3e 1eff d2bd 646b 99bb
000000f0: c8f4 aa3b 61af 743c cda2 053e e356 d83d
00000100: de7f 083e 3f18 4b3e cc12 63bb 3245 80bd
00000110: 0cde 0e3e cfcf acbd aba1 aa3b 163c 7dbd
00000120: 356c b73d f9c7 53be 1e0b 34bd 7000 ab3d
00000130: 5085 d6bd ea8e 00be 5f5f e8bd d2a1 17be
00000140: ed0d b3bd 2363 4d3e 00f4 a2bd 401d b33d
00000150: 7377 d83d 626b fbbd fef9 0a3e aabb d03c
00000160: f5ba 2b3e ce2d 833d 679d 75bd 3518 2c3d
00000170: 3d96 adbd 96a7 093e 58b4 4cbd 267a 66be
00000180: 470b 523e fcbd 21be de3e 7eba b15f 8b3d
00000190: c197 59be ddcb babd d859 023d 233f d23c
000001a0: d13d 36be 986c 323e cda9 e33d e5ec dc3d
000001b0: 5f69 4abe 632c 05be 7c3f 193e f018 4f3e
000001c0: 76df 91bd 7714 03be 0555 963d 5009 1b3e
000001d0: 2143 953c c5c1 dd3d d9ec 56be a758 4f3e
000001e0: 2b73 d23d 4da6 0bbe 0651 47be 35ea 0abb
000001f0: 475a 4c3c 17d3 3a3b e913 07bd 25ad 9a3d
00000200: 76f7 1fbc 0ef3 d8bc 8cac 543e 4b12 10be
00000210: 157f bb3d 79ab 9dbd a034 ea3d 84d1 393e
00000220: ec38 0f3e dab0 213e 633c 503d 68eb 32be
00000230: 8b58 3a3e fd8a 96bb bf24 a03d ace5 4dbd
00000240: 71ff 57be 7736 5ebd 8fd2 ce3c c128 51be
00000250: 5a85 64be 5530 13be 0846 0dbe b3f5 493e
00000260: 8cfb 0ebe 76e9 83bd ee9e 21be ebca 27be
00000270: fa37 3cbe 2e05 c73c 1090 fc3d c119 9bbd
00000280: ad99 623b 5094 56be bd37 08bd de98 10bd
00000290: b35c 9ebd 9237 ba3c dcb2 a7bd 72a8 a6bd
000002a0: 4447 583d 4b92 2cbe 25d8 373d a91b ccbb
000002b0: 6646 3b3e fbf6 0e3e b808 41be 660d 293e
000002c0: 535a 403e de66 d43d fa67 753c 955d 83bd
000002d0: 9dbc 04bd 2b47 71bd 27f9 1cbe eb47 bc3c
000002e0: ba4f abbd a112 ccbd 1e65 9fbd 1df0 d53d
000002f0: 31d9 1b3e 0f96 f8bc 88d6 283e 40d3 ca3d
00000300: 4f43 dbbb 2306 1b3e d507 f1bb 083f 69bd
00000310: ca00 753d 46b4 e0bd b1ff 85bd 44cc 26bd
00000320: 9e44 7bbd 3d28 0bbe 24a3 abbd e5e7 4f3e
00000330: 43ca 423e 7ff2 813d 2c4b 20be 7d3c 7c3d
00000340: 99f3 86bd f418 2ebe c045 33be 3766 a93d
00000350: 6f47 fd3d 9a9b 3fbe a96b 54bd 412f ce3d
00000360: 81ff 5cbe f236 63be 3fe2 ee3d a37b b53d
00000370: cc0f 3dbd f96a 42be 371b 433e 615d f8bd
00000380: e41f febc 3121 4c3d 7c37 97bd 963a 573e
00000390: ca41 95bd 2fce ffbd 1f7a 5fbe dfda a73d
000003a0: 4ac4 38bd 76f5 f73d a922 f4bd ab90 3b3e
000003b0: d1b5 3fbe cea0 6c3c 0866 183e e617 02be
000003c0: d526 44bd a395 c9bd 1013 5b3e 932c 013e
000003d0: 4412 d83d 5caa f9bc c6c3 383e fd2f de3d
000003e0: 0758 babc bf1d ff3d b575 b0bd 255f 06be
000003f0: 4cf9 f7bd c727 0fbd c680 203e 5cd2 1a3d
-0.1869449 0.17340285 -0.040137094 -0.104519494 0.09034257 -0.15963222 0.16328092 -0.13174488
-0.13377798 0.00948482 0.10451134 0.015313139 -0.14573526 0.11923454 -0.035243552 -0.11959228
0.13247798 0.14319277 -0.057237476 0.040198434 0.22860971 0.036431547 0.10539472 -0.17006549
0.012319375 -0.19781363 0.014072373 0.10185241 0.0014744092 0.18904582 -0.03190216 -0.13013555
-0.09100792 0.17795858 0.055988498 -0.23911305 -0.15265867 -0.13368332 0.03149175 0.059033163
-0.08767624 -0.19092157 0.09735169 -0.14869677 0.11137759 0.15078004 0.09545203 -0.20403776
-0.17539744 -0.06833802 0.16263328 0.16258697 -0.15190385 0.066658296 -0.1589398 0.18720084
-0.11295315 0.13898627 -0.10302566 -0.0046819914 0.0052171685 0.014934392 0.13050385 0.10563447
0.13330027 0.19833468 -0.0034648655 -0.06263198 0.13951892 -0.08438074 0.0052072606 -0.06182488
0.08956186 -0.20681752 -0.043955915 0.08349693 -0.10474646 -0.12554517 -0.113463156 -0.14807823
-0.087428905 0.20057349 -0.079566956 0.08745813 0.10569658 -0.12276341 0.13571927 0.02548011
0.16770537 0.06405221 -0.059964564 0.042015273 -0.08475921 0.13442835 -0.049976677 -0.22507533
0.20512114 -0.1579513 -0.0009698699 0.06805361 -0.21249296 -0.09120915 0.031823963 0.025664872
-0.17797019 0.17424238 0.11116371 0.107873715 -0.19766758 -0.13005213 0.14965624 0.20224357
-0.071227 -0.12800775 0.07340435 0.15140271 0.018220486 0.10827974 -0.20988788 0.20248662
0.10275873 -0.13637657 -0.19464502 -0.0021196727 0.012472696 0.0028507167 -0.032977972 0.07552556
-0.009763589 -0.026483085 0.20768946 -0.14069478 0.09155098 -0.076987214 0.11435819 0.1814633
0.13986558 0.1579012 0.05083884 -0.17472613 0.18197839 -0.0045942054 0.07819509 -0.05026786
-0.21093537 -0.05425116 0.025246887 -0.20425703 -0.22316495 -0.14373906 -0.13796246 0.19722633
-0.13963145 -0.064410135 -0.15783283 -0.16386001 -0.18380728 0.024294462 0.12332165 -0.075732715
0.0034576461 -0.20955014 -0.03325628 -0.035302036 -0.07732525 0.022731576 -0.081884116 -0.08137597
0.05280234 -0.16852681 0.044883866 -0.0062288833 0.18288574 0.13961403 -0.18850982 0.16509017
0.18784456 0.10371183 0.014978403 -0.06414334 -0.03240644 -0.05890576 -0.15329419 0.022983512
-0.08364816 -0.09964491 -0.077829584 0.104461886 0.1521957 -0.030344991 0.16488087 0.09903574
-0.0066913734 0.1513906 -0.00735567 -0.056944877 0.059815206 -0.109718844 -0.0654291 -0.040722147
-0.061344735 -0.13589568 -0.08380726 0.20303304 0.19022469 0.063450806 -0.15653676 0.061581124
-0.06589431 -0.17001706 -0.17507076 0.08271449 0.123671405 -0.18711701 -0.051860485 0.10067607
-0.21581842 -0.22188929 0.11664247 0.088614725 -0.046157643 -0.1898612 0.1905335 -0.121271856
-0.031021066 0.04983634 -0.0738363 0.21018443 -0.07287939 -0.12490498 -0.21823929 0.08196043
-0.04510907 0.12107365 -0.119206734 0.18316905 -0.18721701 0.014442636 0.14882672 -0.12704429
-0.047888596 -0.09842994 0.2139399 0.1261466 0.10550359 -0.030476741 0.18043432 0.10848997
-0.022747053 0.124568455 -0.08616201 -0.13122232 -0.121080965 -0.034950044 0.15674123 0.03779827

gcn.convs.1.bias f4 [64]
00000000: 2785 46b8 a738 ce39 7de7 b539 9136 a138
00000010: a69c 5939 fb0b 303a 21c6 57ba ba8b 81ba
00000020: 3566 9639 4ef7 ad39 570b 233a 1f02 0d3a
00000030: c86c 60b9 e2fb 8839 cbbd 40b9 2123 0cba
00000040: 2539 70b9 b51b d1b9 ffe3 4ab9 fee4 eb39
00000050: 31f7 89ba 4a6d beb9 c83c 1739 fd6a 3eba
00000060: b8c3 3938 ec1b 393a 1ab7 57b9 f577 f039
00000070: 0cd3 473a 1530 14ba aab6 9437 dc46 6eba
00000080: 1cff 31b9 9c28 113a 5a1d 73b9 3697 3fb7
00000090: 752b d339 817b ea39 28ef 9d39 85d9 c2ba
000000a0: 8932 61b8 afcd 9c39 b80f ab39 1565 b7b8
000000b0: 39e3 2039 7cef c4b7 0097 8eba 2eb9 93ba
000000c0: 242c aa3a 7c91 d2b8 9ea4 6b38 cee3 8fb6
000000d0: b031 2eb9 3aa2 d638 b286 b539 b5a2 79ba
000000e0: 5385 a0b9 3e4d 1239 6613 62ba 64f8 cdb6
000000f0: cb4d 0eba be7d 12ba b7ff 6cb9 85ba 4f3a
-4.7330886e-05 0.0003933359 0.00034695482 7.687242e-05 0.00020753089 0.00067156524 -0.00082311226 -0.0009883561
0.0002868638 0.00033181388 0.00062196463 0.0005379039 -0.00021402829 0.0002612761 -0.0001838125 -0.0005345811
-0.00022909472 -0.0003988423 -0.00019349156 0.00044993305 -0.0010525939 -0.0003632105 0.00014423125 -0.00072638673
4.4289714e-05 0.00070613506 -0.00020572208 0.00045865742 0.0007622696 -0.0005652917 1.7728034e-05 -0.00090895384
-0.00016975071 0.00055373623 -0.0002318522 -1.1419694e-05 0.00040277434 0.00044723976 0.0003012356 -0.0014865851
-5.3691245e-05 0.00029907885 0.00032627373 -8.744948e-05 0.00015343436 -2.347654e-05 -0.0010878742 -0.0011270398
0.0012983126 -0.00010040679 5.6181678e-05 -4.288252e-06 -0.00016612443 0.00010234532 0.00034623366 -0.00095228414
-0.00030616912 0.0001395242 -0.00086241064 -6.1383926e-06 -0.0005428462 -0.0005588195 -0.00022601975 0.0007924217

gcn.convs.1.lin.weight f4 [64, 64]
00000000: bff4 12ba 8b92 403e b2cf 083e 0b43 c63d
00000010: 222d 25bd bef4 ddbd e6fe 943d 4d16 453e
00000020: 99f8 e4bd e317 49be 0d31 273e 9773 efbc
00000030: c7d7 55be 2aa6 43bd 33d9 33be d446 39be
00000040: d20e eb3d d302 343d e632 a63d 11ca 28bd
00000050: e58d 2f3e 42e0 bc3d 6d6b b63d 0d12 eebd
00000060: 3fd0 0f3c e658 eabd f4a7 d8bd 4876 533c
00000070: 270c 043d 4cec 343e 9133 2b3e 7a89 283e
00000080: 0d98 d7bd 4bfa b43b 51e1 63bb 7b94 ff3d
00000090: 759b 513e 217b 15be 73ad 0ebd b9b3 1f3e
000000a0: 84c1 373d e4a5 a1bd 88be a13d a75a 123e
000000b0: 2a83 a3bd b02a 01be b14c 97bd c37f f0bd
000000c0: fd92 fe3d bd95 47be fd0b 5f3e a217 3a3e
000000d0: de57 113a f269 2c3c 9072 3e3d 2287 a9bd
000000e0: 8699 3cbd 1d33 bebc c5c0 3b3e dcb3 6bbe
000000f0: b7d0 32be 0a3e f93d 4ef2 20be fcd8 a43c
00000100: f4c0 32be 3b43 343e 516c 14be f18f d23d
00000110: 9e1b b43d fe9a 8f3d a657 103d 93ce 6abd
00000120: 7dbd 8b3d 0636 8cbd c5e9 7a3e 8cbd c93d
00000130: b38e 3fbd a0d0 b63d 8fee 363e 9d53 52be
00000140: 8aac a53d 53f7 793d 6c27 3c3d 1388 b73d
00000150: 647b 943d 9ba0 e6bd 81a4 cbbc 0a19 afbb
00000160: 0def 663e 32b2 d0bd daf8 03bd 849e 1fbe
00000170: 7d65 9f3d e675 10be bb13 c23d ad61 9fbc
00000180: 5d52 023d aecd 163e 32c4 f8bc c2da 653d
00000190: 76fa 953c 4197 443d e145 d23d b4cf 86bc
000001a0: f0b9 2f3e 7500 cc3d c031 39be ca59 8fbd
000001b0: 4bf3 2d3e 18b9 1e3d 4e48 233e 02e2 efbd
000001c0: 3385 9cbd ae8e 0c3e 2ceb 3abe adea 983d
000001d0: de86 3abe db5a 8b3d b63e acbc 1ef3 1cbe
000001e0: d424 833d 248d d0bd a4c7 05be 1825 283d
000001f0: 2910 06be c8ee 223d 0ae1 443e 39bc 3bbd
00000200: 37a4 c7bc f4c8 0bbe da8d 1e3e 7225 063e
00000210: 17cc a8bc 85d4 f93d e030 313e 3f9b ecbb
00000220: 7c62 933c e311 86bd 5df9 09bd 6d25 48be
00000230: e2f5 dabc 335d e63d 9a10 eabd 4486 1fbe
00000240: bb21 10be 73ca 113e 7fb1 e73c 04b2 363e
00000250: 4de0 88bb 600d 7abc 10be 35be 8943 6ebd
00000260: 8639 f1bd fe40 0b3e 3747 fc3d 7571 4f3e
00000270: 8d26 ee3d 5b05 b1bc a1a5 213e ae32 2d3e
00000280: a16d 38bd eab3 f0bb 12fc 333d ddec 073c
00000290: 80c1 e2bc bef5 42bc 1cb9 153e 252a ad3d
000002a0: 9e1a cfbd 05f4 f7bd 3ddf 14be 9ca2 59bd
000002b0: 28dc 97bd cce4 4dbe 1d43 2e3e c4df 17be
000002c0: 6f6c 4fbd fe13 10be 4aa8 28bd 0120 23be
000002d0: d285 cebd 9b18 413c 0d20 153e 3d45 123e
000002e0: 9a0c 08be 39f0 583c 2332 dcbd e399 b2bd
000002f0: 5110 483e d41c 42be fd30 473e 3cbc 3b3d
00000300: e0a6 01be b171 453a 993a cabd 0089 34be
00000310: 6456 96bd 7424 d1bd b67d 193c 06f7 a53d
00000320: c9eb 67bd a8a3 90bc 61b8 933d 4c9c a13d
00000330: a1b5 3fbe 20c7 163e 1115 973c e2fd 3cbe
00000340: 4d94 5a3e ac04 cebd 1107 c0bd 5533 2ebe
00000350: b081 e6bd 06ac 0cbe 83f6 9e3d aec8 c23b
00000360: 6043 203e abd0 5bbb 9f24 183e f1ec 483d
00000370: a86f 213d 86ed f83d 32e3 3dbe 9166 d9bc
00000380: e14c e23c 10af 0ebe 99d1 42be 478e 9dbd
00000390: a40d 523d 4c2d 5a3e 71d1 1bbd fed3 f73d
000003a0: 5883 06be afec 3bbd a882 e73d ffa0 423e
000003b0: c0b9 f53d f99a b23c 474a f63d e188 05be
000003c0: 5f8a 103c 5041 25be dd29 61bd 1608 b8bd
000003d0: 4193 713d e4f1 d53d 9885 d7bd 9d32 59be
000003e0: 95ef 153e 24ec 433d afb9 35be 46ac 64be
000003f0: cceb 423e bca2 3abe c57c 85bd 25a0 513d
-0.0005605928 0.18805902 0.1336048 0.09680756 -0.040326245 -0.108376965 0.072751805 0.19246788
-0.11180229 -0.19638018 0.16327305 -0.029229922 -0.20883094 -0.04776589 -0.17563324 -0.18093425
0.11477436 0.043948006 0.08115177 -0.04120833 0.17143972 0.09222461 0.089072086 -0.11624537
0.008777677 -0.11442737 -0.105789095 0.012906618 0.032238152 0.17668265 0.1671889 0.16458693
-0.10527048 0.0055230013 -0.003477175 0.12479492 0.20469458 -0.14597751 -0.034833383 0.15595903
0.044862285 -0.07892969 0.07897669 0.14292394 -0.07984002 -0.1261394 -0.073876746 -0.117431186
0.124303795 -0.19490714 0.21781917 0.18173078 0.0005544404 0.010523306 0.046495974 -0.08277728
-0.04604485 -0.023217732 0.18335254 -0.2301783 -0.17462431 0.12170036 -0.15717432 0.020122997
-0.17456418 0.17603771 -0.14494444 0.10281361 0.0879433 0.07011984 0.035239838 -0.05732591
0.068232514 -0.06846242 0.24503238 0.09850606 -0.046766948 0.08926511 0.1786444 -0.20539708
0.0808955 0.061026882 0.045936033 0.08961501 0.072500974 -0.11261102 -0.024858715 -0.005343561
0.22552128 -0.10190238 -0.032219745 -0.15587813 0.07783029 -0.14107475 0.094764195 -0.019455755
0.03181683 0.14726898 -0.03036699 0.056116827 0.018307906 0.04799581 0.102672346 -0.016456462
0.17160773 0.09961025 -0.18085384 -0.06999548 0.1698734 0.038750738 0.15945551 -0.117130294
-0.07642593 0.13726303 -0.18253773 0.07466636 -0.1821551 0.06804439 -0.021025997 -0.15327117
0.06403509 -0.101831704 -0.13064438 0.041051 -0.13092102 0.0397785 0.1922647 -0.0458338
-0.024370296 -0.13650876 0.154838 0.13100222 -0.02060513 0.12198738 0.173038 -0.007220655
0.017991297 -0.0654638 -0.033685077 -0.19545527 -0.026728574 0.11248245 -0.11428948 -0.15578562
-0.14075367 0.14237384 0.028282879 0.17841345 -0.0041771294 -0.015261978 -0.17748284 -0.058169875
-0.1177855 0.13599011 0.12318271 0.20258124 0.11628447 -0.021608999 0.15785839 0.16913864
-0.045026425 -0.007345666 0.043941565 0.008296219 -0.027680159 -0.01189941 0.14621395 0.08455304
-0.10112499 -0.1210709 -0.14538284 -0.053133592 -0.07415038 -0.2010681 0.17017789 -0.14831454
-0.05064052 -0.14070126 -0.041176118 -0.15930177 -0.10084118 0.011785652 0.14563008 0.14284225
-0.13286057 0.013240867 -0.1075175 -0.08720758 0.19537474 -0.1895631 0.19452281 0.04583381
-0.12661314 0.0007531895 -0.09874458 -0.17630386 -0.073406965 -0.10212031 0.009368351 0.081037566
-0.056621347 -0.017656162 0.07212902 0.078911394 -0.1872163 0.14724398 0.018442662 -0.18456224
0.21345635 -0.10059485 -0.09376348 -0.17011769 -0.11255205 -0.13737497 0.07761862 0.005944333
0.15650702 -0.0033541124 0.1485772 0.04905409 0.039413124 0.12154679 -0.185437 -0.026538165
0.02762455 -0.13933969 -0.19025268 -0.07693153 0.05128254 0.21306342 -0.038041536 0.12100981
-0.13136041 -0.045880016 0.113042176 0.19006728 0.119983196 0.021802412 0.12025886 -0.13040496
0.008822053 -0.16138196 -0.054971565 -0.08985917 0.058978323 0.104465276 -0.10523528 -0.21210714
0.14642175 0.047832623 -0.17746614 -0.22331342 0.19035262 -0.1822614 -0.065179385 0.051178116

gcn.batch_norms.0.module.weight f4 [64]
00000000: 54a3 7c3f e7e6 803f 86c1 7d3f 459e 703f
00000010: 0501 773f 32a3 7e3f 9a47 763f 4b96 843f
00000020: 3327 823f 1615 823f aaa0 863f a60f 823f
00000030: 4946 7a3f 5a75 813f 383c 843f 6f60 7f3f
00000040: 382e 7f3f 020f 7f3f 0ca4 823f 70c1 773f
00000050: 80c8 763f 8f9e 743f 1100 7f3f e283 783f
00000060: 16ab 783f aed7 783f 236f 7c3f 844a 783f
00000070: 74bb 7a3f 5471 763f 0a7b 7b3f 6ac7 7a3f
00000080: 19e0 753f 1947 813f 1416 843f ce23 713f
00000090: 5c59 823f 98bd 803f 1adb 823f 1075 803f
000000a0: f6e0 783f fef0 733f 92a5 783f f9ea 7e3f
000000b0: b563 783f 8958 813f f9f4 803f d3c8 843f
000000c0: 8e12 793f 6eea 833f aebb 743f f74a 7f3f
000000d0: 4a4f 753f 0bcd 7a3f f040 753f c571 7a3f
000000e0: c43c 7c3f 8d3b 7e3f b00d 823f 3aa0 833f
000000f0: b6aa 813f a583 743f d154 833f 711f 813f
0.9868672 1.0070466 0.9912342 0.939915 0.9648593 0.99467766 0.96203005 1.0358366
1.0168213 1.0162685 1.0517781 1.0161026 0.97763497 1.0113938 1.0330877 0.9975652
0.996799 0.99632275 1.0206313 0.9677954 0.9639969 0.9555444 0.99609476 0.9707624
0.97136056 0.972041 0.9860708 0.969887 0.9794228 0.96266675 0.9823462 0.9796053
0.9604507 1.0099822 1.0319238 0.9419526 1.018352 1.005786 1.0223114 1.0035725
0.97218263 0.952896 0.9712764 0.9957729 0.9702714 1.0105144 1.007476 1.0373787
0.9729394 1.0305917 0.95598876 0.9972376 0.9582411 0.9796912 0.9580221 0.9782985
0.9853022 0.9930962 1.0160427 1.0283272 1.0130222 0.95513374 1.0260259 1.008772

gcn.batch_norms.0.module.bias f4 [64]
00000000: 9191 a1bc 0f2d 1abd 477f 5abd e973 75bd
00000010: ddc7 dfbb a33b e3bc 97c0 cabc 4355 093b
00000020: 9edb 21bd 7ff1 01bc 8af5 123d 65e9 2ebc
00000030: 725d 30bd c9eb 103c 65da 313c 59ab 30bd
00000040: 0afa 39bd f6d4 d5bc 5276 003d 623c e33b
00000050: b9fe 17bd fd7e 3cbd 5b19 10bd 7f18 e9bc
00000060: 60e6 9fbc 5ab9 d9bc 58a0 bdbc 12fc 26bd
00000070: 42c0 23bd 5e00 e5bc c3b8 52bb 048b 12bd
00000080: 6dfb 1dbd fb79 85bc b0f1 e73c e75c 20bd
00000090: 578d 193d 77de 1ebb 0e53 02bc 133c edbc
000000a0: e2e2 38bd 819a 23bd 9ba1 21bd 370f 2f3b
000000b0: 53a1 11bd 0e39 c7bc b039 51b9 3248 cc3c
000000c0: 90d0 3dbd 5357 d6bc 90b0 3ebd bd96 72bc
000000d0: 09e9 21bd 4b87 a4bb c087 51bc 5a48 9abc
000000e0: f8c9 27bd 4cee b93c b07c 223b 4dfd 803b
000000f0: d819 c1bb 7805 13bd d993 e63b 65bb d5bc
-0.019722732 -0.037640627 -0.053344037 -0.059924994 -0.0068292455 -0.027738398 -0.024750037 0.002095536
-0.039516084 -0.007931112 0.035878696 -0.010675763 -0.043057866 0.008845278 0.010855292 -0.04313216
-0.04540447 -0.026102524 0.03136284 0.0069346884 -0.037108157 -0.046019543 -0.03518043 -0.028454063
-0.019519031 -0.02657764 -0.023147747 -0.040767737 -0.039978273 -0.027954277 -0.0032153584 -0.035777107
-0.038569856 -0.016293516 0.028313488 -0.0391511 0.037488308 -0.0024241486 -0.007954372 -0.02895931
-0.045138247 -0.03994227 -0.03946076 0.002671195 -0.03555424 -0.024319198 -0.00019953283 0.02493677
-0.04634148 -0.026164686 -0.046555102 -0.014806447 -0.03952888 -0.005021011 -0.012788713 -0.018833328
-0.040964097 0.022696637 0.0024793558 0.003936446 -0.0058929734 -0.035893887 0.007036668 -0.026090333

gcn.batch_norms.0.module.running_mean f4 [64]
00000000: 3cf8 1fbe ba98 d73d 650b 7fbd b690 1cbe
00000010: f95d 823e 186e db3d a787 78bd 21f2 22bd
00000020: a752 d8be 5d1d 84bc 1e27 acbe a4ac c33d
00000030: abca f83d d745 703c eabf 64be 8dc1 d5bd
00000040: ec35 85be 5889 9d3c 1bd4 8a3c 56f5 3abe
00000050: f08d 423e dd6c 833e 0a8f 083e 92c2 363d
00000060: d72f 9cbd ba7b 803d 5192 523e 4c65 d43e
00000070: fb45 203e 789d 733d 9b91 52bd fc1c 9a3d
00000080: ebcf e3bc 324d dbbe dcd0 90be 6dd0 86bd
00000090: 9f7c b8be ac13 4d3e b897 b53c 5aa8 78bd
000000a0: f67e 8b3e 547f e13c 1c9f b13b 429e 583e
000000b0: 38c7 bbbd 47ab c6bd 7c4e 343d 5c15 57be
000000c0: 7ef2 7e3e 0789 f43d b2aa 0abe 9b41 2d3e
000000d0: 44b8 0b3e 3c4f b5bd 06d1 733e 9483 d6bd
000000e0: e498 73bd a533 aa3e f6eb be3c f7ea 06be
000000f0: abbd 40be 7b0d 3dbe a0ac 043e 4db7 00bf
-0.15622038 0.10527177 -0.062266726 -0.15289578 0.2546232 0.10714358 -0.060676243 -0.039781693
-0.4225056 -0.016127283 -0.33623594 0.09554413 0.12148031 0.014665089 -0.22338834 -0.104373075
-0.26017702 0.01923053 0.016946843 -0.1825765 0.18999457 0.25668994 0.13335815 0.04461915
-0.07626312 0.06273599 0.20563628 0.41483533 0.15651695 0.059476346 -0.05140839 0.075250596
-0.027809104 -0.42832333 -0.28284347 -0.06582723 -0.36032578 0.20027035 0.022167072 -0.060707428
0.272453 0.027526535 0.0054205786 0.2115412 -0.09168857 -0.09700637 0.04402016 -0.21004242
0.24897191 0.119401984 -0.13541678 0.16919558 0.1364451 -0.088530034 0.23810205 -0.10474315
-0.05947198 0.33242527 0.023305874 -0.1317557 -0.18822353 -0.18462174 0.12956476 -0.50279695

gcn.batch_norms.0.module.running_var f4 [64]
00000000: 4839 3c3d dbc3 973c ea8c f03c 8516 f23c
00000010: 798c fd3d 0185 863d 14b8 a43d 5dd7 0b3d
00000020: 4b64 403d e79c bc3c ec07 1a3d f9f6 003d
00000030: 6f39 153d 71cc 873c d12c 863d 9f90 083d
00000040: 82bc 523d c5ed 213d 5408 e23c 62d9 0a3d
00000050: c275 af3d d41c 563d 9571 a63c fc57 bf3d
00000060: 4282 923d 0dfd d23d 62eb 833c 0ec2 433d
00000070: e7a3 2c3d 6ec4 903d 281b 1a3d 6cab 093d
00000080: 0721 3c3d ff1c 7b3c 48c8 933c 3db1 043e
00000090: a911 933d fdba 923c 7f35 e83c 5b72 163d
000000a0: cdf9 113d 3787 aa3d a967 673d 566f 1a3d
000000b0: f797 5a3d 8986 ad3c 32b1 f43c c78c a73c
000000c0: c46a 323d 2bcd aa3c f1fc 5a3d 14aa 203d
000000d0: baa4 093d 7430 de3c 2a08 923d 5735 413d
000000e0: f0eb 583d 3436 8b3c be64 ae3c a39f 793d
000000f0: 189a fc3c 330f 043e 2966 a13c 2022 173d
0.045953065 0.018526008 0.029364068 0.029551754 0.12380309 0.06568337 0.080429226 0.034140933
0.046970647 0.023024036 0.03760521 0.03148553 0.036431726 0.016576977 0.06551517 0.033341046
0.051449306 0.039533395 0.027591862 0.03389872 0.085673824 0.052273586 0.020317832 0.093429536
0.07153751 0.10302172 0.01610345 0.047792487 0.042148497 0.07068716 0.037623554 0.033610746
0.045929935 0.015326737 0.018039837 0.12958236 0.07181103 0.017911429 0.028345821 0.03673015
0.03563862 0.083265714 0.056495342 0.037703834 0.05336758 0.021182315 0.02986965 0.02045287
0.04355885 0.020849785 0.05346388 0.0392247 0.03360436 0.027122714 0.071304634 0.04717001
0.052959383 0.01699362 0.021288272 0.060943257 0.030835196 0.12896423 0.019702034 0.03689778

gcn.batch_norms.1.module.weight f4 [64]
00000000: 268d 753f 617a 823f 1342 833f 47bf 7d3f
00000010: e704 793f 7c6f 7d3f 424f 863f ae50 843f
00000020: 4785 813f b807 853f 1397 823f cc9c 833f
00000030: 3de5 843f ace3 833f 731e 803f b32b 7e3f
00000040: b5b5 833f ab4a 803f 240e 843f d9db 833f
00000050: f414 7f3f 06d3 863f e197 853f 8aa2 833f
00000060: eb4a 733f 6e69 753f b5b1 833f fc74 803f
00000070: f6da 803f 7a8f 773f 3f8b 833f 0eeb 833f
00000080: 434c 7d3f aa90 813f 0b2b 803f 8ef3 833f
00000090: 6a63 743f 3861 823f 5211 873f 911a 783f
000000a0: 7a76 853f 21ee 843f 1839 843f b111 763f
000000b0: 1262 823f 8cfd 803f 50ba 843f 458b 7f3f
000000c0: 8fa9 833f 115c 863f c1cc 753f 4ccd 7e3f
000000d0: 6f92 803f 11e2 843f 36d9 853f bfb4 833f
000000e0: f35b 803f f86d 803f 210c 823f bce6 7a3f
000000f0: 4c73 823f 1c89 773f bbb5 773f ac35 843f
0.959185 1.0193597 1.0254539 0.9911999 0.97273105 0.98998237 1.0492938 1.0337121
1.0118798 1.039298 1.0202354 1.0282226 1.0382458 1.0303855 1.0009292 0.9928543
1.0289828 1.0022787 1.0316815 1.0301467 0.99641347 1.0533149 1.0436975 1.0283978
0.9503619 0.95864 1.0288607 1.0035701 1.0066822 0.967033 1.027687 1.0306108
0.9894449 1.0122273 1.0013136 1.0308702 0.95464194 1.0185919 1.0552161 0.9691554
1.0426781 1.0385171 1.0329924 0.96120745 1.0186179 1.0077376 1.0369358 0.99821883
1.028612 1.0496846 0.96015555 0.9953201 1.0044688 1.038149 1.0456913 1.0289534
1.0028061 1.003356 1.0159951 0.9800832 1.0191436 0.9669359 0.96761674 1.0328879

gcn.batch_norms.1.module.bias f4 [64]
00000000: fa98 5abd d9db 6ebd bd32 0cbd 3848 11bd
00000010: 293b d6bc 4939 0dbd 074f 23bd d931 69bd
00000020: 6ff8 c9bc 18e3 65bd 2515 2ebd fec2 3dbd
00000030: f62f 4dbd cf06 5fbd 9ddc 3cbd 5d3d e4bc
00000040: 0398 c4bb 5550 44bd 6d88 74bd e9ad 61bd
00000050: 8be2 22bd 4f5b 08bd e76a 10bd eefe 50bd
00000060: 5345 2dbd 4426 87bc bf2d 0cbd 8a98 30bd
00000070: 8b47 7bbd 0d1b 543c d935 82bd 4679 06bd
00000080: a9b0 3cbd b1aa 1ebd c37a 4abd 28a2 dfbc
00000090: 979b 00bc e294 23bd 037f acbb cfe8 42bd
000000a0: c542 83bd 60ca 95bd bf5a cbbc 58c0 05bc
000000b0: 9dd9 aabd 16c6 3dbc 1147 6abd e846 a2bc
000000c0: cae1 72bd 4c31 7fbd cd84 553c cec1 32bc
000000d0: 8b35 54bc f5a2 80bd e661 cdbc 80a6 32bd
000000e0: 5f86 47bc 7bf2 0abd 5f1b 14bd cf1d 8e3b
000000f0: 451c 1dbd 2453 19bd a0ba 963c dccb 1fbc
-0.053368546 -0.05831513 -0.034228075 -0.035469264 -0.026151257 -0.03447846 -0.03987029 -0.056932304
-0.024654595 -0.056124777 -0.042500634 -0.046328537 -0.050094567 -0.054449853 -0.04610883 -0.027861292
-0.0059995665 -0.047928173 -0.05970042 -0.055097494 -0.03976683 -0.033290204 -0.0352582 -0.05102437
-0.04230244 -0.016497739 -0.034223314 -0.043114223 -0.061347526 0.0129459025 -0.06357927 -0.0328305
-0.046066914 -0.038737003 -0.04943348 -0.027299002 -0.0078495955 -0.039936908 -0.0052641644 -0.047585305
-0.0640922 -0.073139906 -0.024823545 -0.008163534 -0.08342288 -0.011582872 -0.05719668 -0.019809201
-0.05929736 -0.062302873 0.01303215 -0.010910464 -0.012952219 -0.062810816 -0.025071096 -0.043615818
-0.012178033 -0.033922654 -0.036158916 0.0043370496 -0.038357038 -0.037432805 0.018399537 -0.009753194
